{"format": "graph-model", "generatedBy": "2.4.0-dev20201021", "convertedBy": "TensorFlow.js Converter v2.7.0", "userDefinedMetadata": {"signature": {"inputs": {"input_1:0": {"name": "input_1:0", "dtype": "DT_FLOAT", "tensorShape": {"dim": [{"size": "-1"}, {"size": "-1"}, {"size": "3"}]}}}, "outputs": {"Identity:0": {"name": "Identity:0", "dtype": "DT_FLOAT", "tensorShape": {"dim": [{"size": "-1"}, {"size": "345"}]}}}}}, "modelTopology": {"node": [{"name": "StatefulPartitionedCall/model/bidirectional_2/forward_lstm_2/PartitionedCall/TensorArrayV2_1/element_shape", "op": "Const", "attr": {"value": {"tensor": {"dtype": "DT_INT32", "tensorShape": {"dim": [{"size": "2"}]}}}, "dtype": {"type": "DT_INT32"}}}, {"name": "StatefulPartitionedCall/model/bidirectional_2/forward_lstm_2/zeros_1/packed/1", "op": "Const", "attr": {"value": {"tensor": {"dtype": "DT_INT32", "tensorShape": {}}}, "dtype": {"type": "DT_INT32"}}}, {"name": "StatefulPartitionedCall/model/bidirectional_2/forward_lstm_2/zeros_1/Const", "op": "Const", "attr": {"value": {"tensor": {"dtype": "DT_FLOAT", "tensorShape": {}}}, "dtype": {"type": "DT_FLOAT"}}}, {"name": "StatefulPartitionedCall/model/bidirectional_2/forward_lstm_2/PartitionedCall/TensorArrayUnstack/TensorListFromTensor/element_shape", "op": "Const", "attr": {"value": {"tensor": {"dtype": "DT_INT32", "tensorShape": {"dim": [{"size": "2"}]}}}, "dtype": {"type": "DT_INT32"}}}, {"name": "unknown_29", "op": "Const", "attr": {"value": {"tensor": {"dtype": "DT_FLOAT", "tensorShape": {"dim": [{"size": "256"}, {"size": "512"}]}}}, "dtype": {"type": "DT_FLOAT"}}}, {"name": "StatefulPartitionedCall/model/bidirectional_2/forward_lstm_2/strided_slice/stack", "op": "Const", "attr": {"value": {"tensor": {"dtype": "DT_INT32", "tensorShape": {"dim": [{"size": "1"}]}}}, "dtype": {"type": "DT_INT32"}}}, {"name": "StatefulPartitionedCall/model/bidirectional_2/forward_lstm_2/strided_slice/stack_1", "op": "Const", "attr": {"value": {"tensor": {"dtype": "DT_INT32", "tensorShape": {"dim": [{"size": "1"}]}}}, "dtype": {"type": "DT_INT32"}}}, {"name": "StatefulPartitionedCall/model/bidirectional_2/forward_lstm_2/strided_slice/stack_2", "op": "Const", "attr": {"value": {"tensor": {"dtype": "DT_INT32", "tensorShape": {"dim": [{"size": "1"}]}}}, "dtype": {"type": "DT_INT32"}}}, {"name": "StatefulPartitionedCall/model/bidirectional_2/forward_lstm_2/zeros/packed/1", "op": "Const", "attr": {"value": {"tensor": {"dtype": "DT_INT32", "tensorShape": {}}}, "dtype": {"type": "DT_INT32"}}}, {"name": "StatefulPartitionedCall/model/bidirectional_2/forward_lstm_2/zeros/Const", "op": "Const", "attr": {"value": {"tensor": {"dtype": "DT_FLOAT", "tensorShape": {}}}, "dtype": {"type": "DT_FLOAT"}}}, {"name": "unknown_30", "op": "Const", "attr": {"value": {"tensor": {"dtype": "DT_FLOAT", "tensorShape": {"dim": [{"size": "128"}, {"size": "512"}]}}}, "dtype": {"type": "DT_FLOAT"}}}, {"name": "unknown_31", "op": "Const", "attr": {"value": {"tensor": {"dtype": "DT_FLOAT", "tensorShape": {"dim": [{"size": "512"}]}}}, "dtype": {"type": "DT_FLOAT"}}}, {"name": "StatefulPartitionedCall/model/bidirectional_2/forward_lstm_2/PartitionedCall/time", "op": "Const", "attr": {"value": {"tensor": {"dtype": "DT_INT32", "tensorShape": {}}}, "dtype": {"type": "DT_INT32"}}}, {"name": "StatefulPartitionedCall/model/bidirectional_2/forward_lstm_2/PartitionedCall/transpose/perm", "op": "Const", "attr": {"value": {"tensor": {"dtype": "DT_INT32", "tensorShape": {"dim": [{"size": "3"}]}}}, "dtype": {"type": "DT_INT32"}}}, {"name": "StatefulPartitionedCall/model/bidirectional_2/forward_lstm_2/PartitionedCall/strided_slice/stack", "op": "Const", "attr": {"value": {"tensor": {"dtype": "DT_INT32", "tensorShape": {"dim": [{"size": "1"}]}}}, "dtype": {"type": "DT_INT32"}}}, {"name": "StatefulPartitionedCall/model/bidirectional_2/forward_lstm_2/PartitionedCall/strided_slice/stack_1", "op": "Const", "attr": {"value": {"tensor": {"dtype": "DT_INT32", "tensorShape": {"dim": [{"size": "1"}]}}}, "dtype": {"type": "DT_INT32"}}}, {"name": "StatefulPartitionedCall/model/bidirectional_2/forward_lstm_2/PartitionedCall/strided_slice/stack_2", "op": "Const", "attr": {"value": {"tensor": {"dtype": "DT_INT32", "tensorShape": {"dim": [{"size": "1"}]}}}, "dtype": {"type": "DT_INT32"}}}, {"name": "StatefulPartitionedCall/model/bidirectional_2/forward_lstm_2/PartitionedCall/while/loop_counter", "op": "Const", "attr": {"value": {"tensor": {"dtype": "DT_INT32", "tensorShape": {}}}, "dtype": {"type": "DT_INT32"}}}, {"name": "StatefulPartitionedCall/model/bidirectional_2/forward_lstm_2/PartitionedCall/TensorArrayV2Stack/TensorListStack/element_shape", "op": "Const", "attr": {"value": {"tensor": {"dtype": "DT_INT32", "tensorShape": {"dim": [{"size": "2"}]}}}, "dtype": {"type": "DT_INT32"}}}, {"name": "StatefulPartitionedCall/model/bidirectional_2/forward_lstm_2/PartitionedCall/strided_slice_2/stack", "op": "Const", "attr": {"value": {"tensor": {"dtype": "DT_INT32", "tensorShape": {"dim": [{"size": "1"}]}}}, "dtype": {"type": "DT_INT32"}}}, {"name": "StatefulPartitionedCall/model/bidirectional_2/forward_lstm_2/PartitionedCall/strided_slice_2/stack_1", "op": "Const", "attr": {"value": {"tensor": {"dtype": "DT_INT32", "tensorShape": {"dim": [{"size": "1"}]}}}, "dtype": {"type": "DT_INT32"}}}, {"name": "StatefulPartitionedCall/model/bidirectional_2/forward_lstm_2/PartitionedCall/strided_slice_2/stack_2", "op": "Const", "attr": {"value": {"tensor": {"dtype": "DT_INT32", "tensorShape": {"dim": [{"size": "1"}]}}}, "dtype": {"type": "DT_INT32"}}}, {"name": "StatefulPartitionedCall/model/bidirectional_2/backward_lstm_2/PartitionedCall/TensorArrayV2_1/element_shape", "op": "Const", "attr": {"value": {"tensor": {"dtype": "DT_INT32", "tensorShape": {"dim": [{"size": "2"}]}}}, "dtype": {"type": "DT_INT32"}}}, {"name": "StatefulPartitionedCall/model/bidirectional_2/backward_lstm_2/zeros_1/packed/1", "op": "Const", "attr": {"value": {"tensor": {"dtype": "DT_INT32", "tensorShape": {}}}, "dtype": {"type": "DT_INT32"}}}, {"name": "StatefulPartitionedCall/model/bidirectional_2/backward_lstm_2/zeros_1/Const", "op": "Const", "attr": {"value": {"tensor": {"dtype": "DT_FLOAT", "tensorShape": {}}}, "dtype": {"type": "DT_FLOAT"}}}, {"name": "StatefulPartitionedCall/model/bidirectional_2/backward_lstm_2/PartitionedCall/ReverseV2/axis", "op": "Const", "attr": {"value": {"tensor": {"dtype": "DT_INT32", "tensorShape": {"dim": [{"size": "1"}]}}}, "dtype": {"type": "DT_INT32"}}}, {"name": "StatefulPartitionedCall/model/bidirectional_2/backward_lstm_2/PartitionedCall/TensorArrayUnstack/TensorListFromTensor/element_shape", "op": "Const", "attr": {"value": {"tensor": {"dtype": "DT_INT32", "tensorShape": {"dim": [{"size": "2"}]}}}, "dtype": {"type": "DT_INT32"}}}, {"name": "unknown_32", "op": "Const", "attr": {"value": {"tensor": {"dtype": "DT_FLOAT", "tensorShape": {"dim": [{"size": "256"}, {"size": "512"}]}}}, "dtype": {"type": "DT_FLOAT"}}}, {"name": "StatefulPartitionedCall/model/bidirectional_2/backward_lstm_2/strided_slice/stack", "op": "Const", "attr": {"value": {"tensor": {"dtype": "DT_INT32", "tensorShape": {"dim": [{"size": "1"}]}}}, "dtype": {"type": "DT_INT32"}}}, {"name": "StatefulPartitionedCall/model/bidirectional_2/backward_lstm_2/strided_slice/stack_1", "op": "Const", "attr": {"value": {"tensor": {"dtype": "DT_INT32", "tensorShape": {"dim": [{"size": "1"}]}}}, "dtype": {"type": "DT_INT32"}}}, {"name": "StatefulPartitionedCall/model/bidirectional_2/backward_lstm_2/strided_slice/stack_2", "op": "Const", "attr": {"value": {"tensor": {"dtype": "DT_INT32", "tensorShape": {"dim": [{"size": "1"}]}}}, "dtype": {"type": "DT_INT32"}}}, {"name": "StatefulPartitionedCall/model/bidirectional_2/backward_lstm_2/zeros/packed/1", "op": "Const", "attr": {"value": {"tensor": {"dtype": "DT_INT32", "tensorShape": {}}}, "dtype": {"type": "DT_INT32"}}}, {"name": "StatefulPartitionedCall/model/bidirectional_2/backward_lstm_2/zeros/Const", "op": "Const", "attr": {"value": {"tensor": {"dtype": "DT_FLOAT", "tensorShape": {}}}, "dtype": {"type": "DT_FLOAT"}}}, {"name": "unknown_33", "op": "Const", "attr": {"value": {"tensor": {"dtype": "DT_FLOAT", "tensorShape": {"dim": [{"size": "128"}, {"size": "512"}]}}}, "dtype": {"type": "DT_FLOAT"}}}, {"name": "unknown_34", "op": "Const", "attr": {"value": {"tensor": {"dtype": "DT_FLOAT", "tensorShape": {"dim": [{"size": "512"}]}}}, "dtype": {"type": "DT_FLOAT"}}}, {"name": "StatefulPartitionedCall/model/bidirectional_2/backward_lstm_2/PartitionedCall/time", "op": "Const", "attr": {"value": {"tensor": {"dtype": "DT_INT32", "tensorShape": {}}}, "dtype": {"type": "DT_INT32"}}}, {"name": "StatefulPartitionedCall/model/bidirectional_1/forward_lstm_1/PartitionedCall/TensorArrayV2_1/element_shape", "op": "Const", "attr": {"value": {"tensor": {"dtype": "DT_INT32", "tensorShape": {"dim": [{"size": "2"}]}}}, "dtype": {"type": "DT_INT32"}}}, {"name": "StatefulPartitionedCall/model/bidirectional_1/forward_lstm_1/zeros_1/packed/1", "op": "Const", "attr": {"value": {"tensor": {"dtype": "DT_INT32", "tensorShape": {}}}, "dtype": {"type": "DT_INT32"}}}, {"name": "StatefulPartitionedCall/model/bidirectional_1/forward_lstm_1/zeros_1/Const", "op": "Const", "attr": {"value": {"tensor": {"dtype": "DT_FLOAT", "tensorShape": {}}}, "dtype": {"type": "DT_FLOAT"}}}, {"name": "StatefulPartitionedCall/model/bidirectional_1/forward_lstm_1/PartitionedCall/TensorArrayUnstack/TensorListFromTensor/element_shape", "op": "Const", "attr": {"value": {"tensor": {"dtype": "DT_INT32", "tensorShape": {"dim": [{"size": "2"}]}}}, "dtype": {"type": "DT_INT32"}}}, {"name": "unknown_23", "op": "Const", "attr": {"value": {"tensor": {"dtype": "DT_FLOAT", "tensorShape": {"dim": [{"size": "256"}, {"size": "512"}]}}}, "dtype": {"type": "DT_FLOAT"}}}, {"name": "StatefulPartitionedCall/model/bidirectional_1/forward_lstm_1/strided_slice/stack", "op": "Const", "attr": {"value": {"tensor": {"dtype": "DT_INT32", "tensorShape": {"dim": [{"size": "1"}]}}}, "dtype": {"type": "DT_INT32"}}}, {"name": "StatefulPartitionedCall/model/bidirectional_1/forward_lstm_1/strided_slice/stack_1", "op": "Const", "attr": {"value": {"tensor": {"dtype": "DT_INT32", "tensorShape": {"dim": [{"size": "1"}]}}}, "dtype": {"type": "DT_INT32"}}}, {"name": "StatefulPartitionedCall/model/bidirectional_1/forward_lstm_1/strided_slice/stack_2", "op": "Const", "attr": {"value": {"tensor": {"dtype": "DT_INT32", "tensorShape": {"dim": [{"size": "1"}]}}}, "dtype": {"type": "DT_INT32"}}}, {"name": "StatefulPartitionedCall/model/bidirectional_1/forward_lstm_1/zeros/packed/1", "op": "Const", "attr": {"value": {"tensor": {"dtype": "DT_INT32", "tensorShape": {}}}, "dtype": {"type": "DT_INT32"}}}, {"name": "StatefulPartitionedCall/model/bidirectional_1/forward_lstm_1/zeros/Const", "op": "Const", "attr": {"value": {"tensor": {"dtype": "DT_FLOAT", "tensorShape": {}}}, "dtype": {"type": "DT_FLOAT"}}}, {"name": "unknown_24", "op": "Const", "attr": {"value": {"tensor": {"dtype": "DT_FLOAT", "tensorShape": {"dim": [{"size": "128"}, {"size": "512"}]}}}, "dtype": {"type": "DT_FLOAT"}}}, {"name": "unknown_25", "op": "Const", "attr": {"value": {"tensor": {"dtype": "DT_FLOAT", "tensorShape": {"dim": [{"size": "512"}]}}}, "dtype": {"type": "DT_FLOAT"}}}, {"name": "StatefulPartitionedCall/model/bidirectional_1/forward_lstm_1/PartitionedCall/time", "op": "Const", "attr": {"value": {"tensor": {"dtype": "DT_INT32", "tensorShape": {}}}, "dtype": {"type": "DT_INT32"}}}, {"name": "StatefulPartitionedCall/model/bidirectional_1/forward_lstm_1/PartitionedCall/transpose/perm", "op": "Const", "attr": {"value": {"tensor": {"dtype": "DT_INT32", "tensorShape": {"dim": [{"size": "3"}]}}}, "dtype": {"type": "DT_INT32"}}}, {"name": "StatefulPartitionedCall/model/bidirectional_1/forward_lstm_1/PartitionedCall/strided_slice/stack", "op": "Const", "attr": {"value": {"tensor": {"dtype": "DT_INT32", "tensorShape": {"dim": [{"size": "1"}]}}}, "dtype": {"type": "DT_INT32"}}}, {"name": "StatefulPartitionedCall/model/bidirectional_1/forward_lstm_1/PartitionedCall/strided_slice/stack_1", "op": "Const", "attr": {"value": {"tensor": {"dtype": "DT_INT32", "tensorShape": {"dim": [{"size": "1"}]}}}, "dtype": {"type": "DT_INT32"}}}, {"name": "StatefulPartitionedCall/model/bidirectional_1/forward_lstm_1/PartitionedCall/strided_slice/stack_2", "op": "Const", "attr": {"value": {"tensor": {"dtype": "DT_INT32", "tensorShape": {"dim": [{"size": "1"}]}}}, "dtype": {"type": "DT_INT32"}}}, {"name": "StatefulPartitionedCall/model/bidirectional_1/forward_lstm_1/PartitionedCall/while/loop_counter", "op": "Const", "attr": {"value": {"tensor": {"dtype": "DT_INT32", "tensorShape": {}}}, "dtype": {"type": "DT_INT32"}}}, {"name": "StatefulPartitionedCall/model/bidirectional_1/forward_lstm_1/PartitionedCall/TensorArrayV2Stack/TensorListStack/element_shape", "op": "Const", "attr": {"value": {"tensor": {"dtype": "DT_INT32", "tensorShape": {"dim": [{"size": "2"}]}}}, "dtype": {"type": "DT_INT32"}}}, {"name": "StatefulPartitionedCall/model/bidirectional_1/forward_lstm_1/PartitionedCall/transpose_1/perm", "op": "Const", "attr": {"value": {"tensor": {"dtype": "DT_INT32", "tensorShape": {"dim": [{"size": "3"}]}}}, "dtype": {"type": "DT_INT32"}}}, {"name": "StatefulPartitionedCall/model/bidirectional_1/backward_lstm_1/PartitionedCall/TensorArrayV2_1/element_shape", "op": "Const", "attr": {"value": {"tensor": {"dtype": "DT_INT32", "tensorShape": {"dim": [{"size": "2"}]}}}, "dtype": {"type": "DT_INT32"}}}, {"name": "StatefulPartitionedCall/model/bidirectional_1/backward_lstm_1/zeros_1/packed/1", "op": "Const", "attr": {"value": {"tensor": {"dtype": "DT_INT32", "tensorShape": {}}}, "dtype": {"type": "DT_INT32"}}}, {"name": "StatefulPartitionedCall/model/bidirectional_1/backward_lstm_1/zeros_1/Const", "op": "Const", "attr": {"value": {"tensor": {"dtype": "DT_FLOAT", "tensorShape": {}}}, "dtype": {"type": "DT_FLOAT"}}}, {"name": "StatefulPartitionedCall/model/bidirectional_1/backward_lstm_1/PartitionedCall/ReverseV2/axis", "op": "Const", "attr": {"value": {"tensor": {"dtype": "DT_INT32", "tensorShape": {"dim": [{"size": "1"}]}}}, "dtype": {"type": "DT_INT32"}}}, {"name": "StatefulPartitionedCall/model/bidirectional_1/backward_lstm_1/PartitionedCall/TensorArrayUnstack/TensorListFromTensor/element_shape", "op": "Const", "attr": {"value": {"tensor": {"dtype": "DT_INT32", "tensorShape": {"dim": [{"size": "2"}]}}}, "dtype": {"type": "DT_INT32"}}}, {"name": "unknown_26", "op": "Const", "attr": {"value": {"tensor": {"dtype": "DT_FLOAT", "tensorShape": {"dim": [{"size": "256"}, {"size": "512"}]}}}, "dtype": {"type": "DT_FLOAT"}}}, {"name": "StatefulPartitionedCall/model/bidirectional_1/backward_lstm_1/strided_slice/stack", "op": "Const", "attr": {"value": {"tensor": {"dtype": "DT_INT32", "tensorShape": {"dim": [{"size": "1"}]}}}, "dtype": {"type": "DT_INT32"}}}, {"name": "StatefulPartitionedCall/model/bidirectional_1/backward_lstm_1/strided_slice/stack_1", "op": "Const", "attr": {"value": {"tensor": {"dtype": "DT_INT32", "tensorShape": {"dim": [{"size": "1"}]}}}, "dtype": {"type": "DT_INT32"}}}, {"name": "StatefulPartitionedCall/model/bidirectional_1/backward_lstm_1/strided_slice/stack_2", "op": "Const", "attr": {"value": {"tensor": {"dtype": "DT_INT32", "tensorShape": {"dim": [{"size": "1"}]}}}, "dtype": {"type": "DT_INT32"}}}, {"name": "StatefulPartitionedCall/model/bidirectional_1/backward_lstm_1/zeros/packed/1", "op": "Const", "attr": {"value": {"tensor": {"dtype": "DT_INT32", "tensorShape": {}}}, "dtype": {"type": "DT_INT32"}}}, {"name": "StatefulPartitionedCall/model/bidirectional_1/backward_lstm_1/zeros/Const", "op": "Const", "attr": {"value": {"tensor": {"dtype": "DT_FLOAT", "tensorShape": {}}}, "dtype": {"type": "DT_FLOAT"}}}, {"name": "unknown_27", "op": "Const", "attr": {"value": {"tensor": {"dtype": "DT_FLOAT", "tensorShape": {"dim": [{"size": "128"}, {"size": "512"}]}}}, "dtype": {"type": "DT_FLOAT"}}}, {"name": "unknown_28", "op": "Const", "attr": {"value": {"tensor": {"dtype": "DT_FLOAT", "tensorShape": {"dim": [{"size": "512"}]}}}, "dtype": {"type": "DT_FLOAT"}}}, {"name": "StatefulPartitionedCall/model/bidirectional_1/backward_lstm_1/PartitionedCall/time", "op": "Const", "attr": {"value": {"tensor": {"dtype": "DT_INT32", "tensorShape": {}}}, "dtype": {"type": "DT_INT32"}}}, {"name": "StatefulPartitionedCall/model/bidirectional/forward_lstm/PartitionedCall/TensorArrayV2_1/element_shape", "op": "Const", "attr": {"value": {"tensor": {"dtype": "DT_INT32", "tensorShape": {"dim": [{"size": "2"}]}}}, "dtype": {"type": "DT_INT32"}}}, {"name": "StatefulPartitionedCall/model/bidirectional/forward_lstm/zeros_1/packed/1", "op": "Const", "attr": {"value": {"tensor": {"dtype": "DT_INT32", "tensorShape": {}}}, "dtype": {"type": "DT_INT32"}}}, {"name": "StatefulPartitionedCall/model/bidirectional/forward_lstm/zeros_1/Const", "op": "Const", "attr": {"value": {"tensor": {"dtype": "DT_FLOAT", "tensorShape": {}}}, "dtype": {"type": "DT_FLOAT"}}}, {"name": "StatefulPartitionedCall/model/bidirectional/forward_lstm/PartitionedCall/TensorArrayUnstack/TensorListFromTensor/element_shape", "op": "Const", "attr": {"value": {"tensor": {"dtype": "DT_INT32", "tensorShape": {"dim": [{"size": "2"}]}}}, "dtype": {"type": "DT_INT32"}}}, {"name": "unknown_17", "op": "Const", "attr": {"value": {"tensor": {"dtype": "DT_FLOAT", "tensorShape": {"dim": [{"size": "96"}, {"size": "512"}]}}}, "dtype": {"type": "DT_FLOAT"}}}, {"name": "StatefulPartitionedCall/model/bidirectional/forward_lstm/strided_slice/stack", "op": "Const", "attr": {"value": {"tensor": {"dtype": "DT_INT32", "tensorShape": {"dim": [{"size": "1"}]}}}, "dtype": {"type": "DT_INT32"}}}, {"name": "StatefulPartitionedCall/model/bidirectional/forward_lstm/strided_slice/stack_1", "op": "Const", "attr": {"value": {"tensor": {"dtype": "DT_INT32", "tensorShape": {"dim": [{"size": "1"}]}}}, "dtype": {"type": "DT_INT32"}}}, {"name": "StatefulPartitionedCall/model/bidirectional/forward_lstm/strided_slice/stack_2", "op": "Const", "attr": {"value": {"tensor": {"dtype": "DT_INT32", "tensorShape": {"dim": [{"size": "1"}]}}}, "dtype": {"type": "DT_INT32"}}}, {"name": "StatefulPartitionedCall/model/bidirectional/forward_lstm/zeros/packed/1", "op": "Const", "attr": {"value": {"tensor": {"dtype": "DT_INT32", "tensorShape": {}}}, "dtype": {"type": "DT_INT32"}}}, {"name": "StatefulPartitionedCall/model/bidirectional/forward_lstm/zeros/Const", "op": "Const", "attr": {"value": {"tensor": {"dtype": "DT_FLOAT", "tensorShape": {}}}, "dtype": {"type": "DT_FLOAT"}}}, {"name": "unknown_18", "op": "Const", "attr": {"value": {"tensor": {"dtype": "DT_FLOAT", "tensorShape": {"dim": [{"size": "128"}, {"size": "512"}]}}}, "dtype": {"type": "DT_FLOAT"}}}, {"name": "unknown_19", "op": "Const", "attr": {"value": {"tensor": {"dtype": "DT_FLOAT", "tensorShape": {"dim": [{"size": "512"}]}}}, "dtype": {"type": "DT_FLOAT"}}}, {"name": "StatefulPartitionedCall/model/bidirectional/forward_lstm/PartitionedCall/time", "op": "Const", "attr": {"value": {"tensor": {"dtype": "DT_INT32", "tensorShape": {}}}, "dtype": {"type": "DT_INT32"}}}, {"name": "StatefulPartitionedCall/model/bidirectional/forward_lstm/PartitionedCall/transpose/perm", "op": "Const", "attr": {"value": {"tensor": {"dtype": "DT_INT32", "tensorShape": {"dim": [{"size": "3"}]}}}, "dtype": {"type": "DT_INT32"}}}, {"name": "StatefulPartitionedCall/model/bidirectional/forward_lstm/PartitionedCall/strided_slice/stack", "op": "Const", "attr": {"value": {"tensor": {"dtype": "DT_INT32", "tensorShape": {"dim": [{"size": "1"}]}}}, "dtype": {"type": "DT_INT32"}}}, {"name": "StatefulPartitionedCall/model/bidirectional/forward_lstm/PartitionedCall/strided_slice/stack_1", "op": "Const", "attr": {"value": {"tensor": {"dtype": "DT_INT32", "tensorShape": {"dim": [{"size": "1"}]}}}, "dtype": {"type": "DT_INT32"}}}, {"name": "StatefulPartitionedCall/model/bidirectional/forward_lstm/PartitionedCall/strided_slice/stack_2", "op": "Const", "attr": {"value": {"tensor": {"dtype": "DT_INT32", "tensorShape": {"dim": [{"size": "1"}]}}}, "dtype": {"type": "DT_INT32"}}}, {"name": "StatefulPartitionedCall/model/bidirectional/forward_lstm/PartitionedCall/while/loop_counter", "op": "Const", "attr": {"value": {"tensor": {"dtype": "DT_INT32", "tensorShape": {}}}, "dtype": {"type": "DT_INT32"}}}, {"name": "StatefulPartitionedCall/model/bidirectional/forward_lstm/PartitionedCall/TensorArrayV2Stack/TensorListStack/element_shape", "op": "Const", "attr": {"value": {"tensor": {"dtype": "DT_INT32", "tensorShape": {"dim": [{"size": "2"}]}}}, "dtype": {"type": "DT_INT32"}}}, {"name": "StatefulPartitionedCall/model/bidirectional/forward_lstm/PartitionedCall/transpose_1/perm", "op": "Const", "attr": {"value": {"tensor": {"dtype": "DT_INT32", "tensorShape": {"dim": [{"size": "3"}]}}}, "dtype": {"type": "DT_INT32"}}}, {"name": "StatefulPartitionedCall/model/bidirectional/backward_lstm/PartitionedCall/TensorArrayV2_1/element_shape", "op": "Const", "attr": {"value": {"tensor": {"dtype": "DT_INT32", "tensorShape": {"dim": [{"size": "2"}]}}}, "dtype": {"type": "DT_INT32"}}}, {"name": "StatefulPartitionedCall/model/bidirectional/backward_lstm/zeros_1/packed/1", "op": "Const", "attr": {"value": {"tensor": {"dtype": "DT_INT32", "tensorShape": {}}}, "dtype": {"type": "DT_INT32"}}}, {"name": "StatefulPartitionedCall/model/bidirectional/backward_lstm/zeros_1/Const", "op": "Const", "attr": {"value": {"tensor": {"dtype": "DT_FLOAT", "tensorShape": {}}}, "dtype": {"type": "DT_FLOAT"}}}, {"name": "StatefulPartitionedCall/model/bidirectional/backward_lstm/PartitionedCall/ReverseV2/axis", "op": "Const", "attr": {"value": {"tensor": {"dtype": "DT_INT32", "tensorShape": {"dim": [{"size": "1"}]}}}, "dtype": {"type": "DT_INT32"}}}, {"name": "StatefulPartitionedCall/model/bidirectional/backward_lstm/PartitionedCall/TensorArrayUnstack/TensorListFromTensor/element_shape", "op": "Const", "attr": {"value": {"tensor": {"dtype": "DT_INT32", "tensorShape": {"dim": [{"size": "2"}]}}}, "dtype": {"type": "DT_INT32"}}}, {"name": "unknown_20", "op": "Const", "attr": {"value": {"tensor": {"dtype": "DT_FLOAT", "tensorShape": {"dim": [{"size": "96"}, {"size": "512"}]}}}, "dtype": {"type": "DT_FLOAT"}}}, {"name": "StatefulPartitionedCall/model/bidirectional/backward_lstm/strided_slice/stack", "op": "Const", "attr": {"value": {"tensor": {"dtype": "DT_INT32", "tensorShape": {"dim": [{"size": "1"}]}}}, "dtype": {"type": "DT_INT32"}}}, {"name": "StatefulPartitionedCall/model/bidirectional/backward_lstm/strided_slice/stack_1", "op": "Const", "attr": {"value": {"tensor": {"dtype": "DT_INT32", "tensorShape": {"dim": [{"size": "1"}]}}}, "dtype": {"type": "DT_INT32"}}}, {"name": "StatefulPartitionedCall/model/bidirectional/backward_lstm/strided_slice/stack_2", "op": "Const", "attr": {"value": {"tensor": {"dtype": "DT_INT32", "tensorShape": {"dim": [{"size": "1"}]}}}, "dtype": {"type": "DT_INT32"}}}, {"name": "StatefulPartitionedCall/model/bidirectional/backward_lstm/zeros/packed/1", "op": "Const", "attr": {"value": {"tensor": {"dtype": "DT_INT32", "tensorShape": {}}}, "dtype": {"type": "DT_INT32"}}}, {"name": "StatefulPartitionedCall/model/bidirectional/backward_lstm/zeros/Const", "op": "Const", "attr": {"value": {"tensor": {"dtype": "DT_FLOAT", "tensorShape": {}}}, "dtype": {"type": "DT_FLOAT"}}}, {"name": "unknown_21", "op": "Const", "attr": {"value": {"tensor": {"dtype": "DT_FLOAT", "tensorShape": {"dim": [{"size": "128"}, {"size": "512"}]}}}, "dtype": {"type": "DT_FLOAT"}}}, {"name": "unknown_22", "op": "Const", "attr": {"value": {"tensor": {"dtype": "DT_FLOAT", "tensorShape": {"dim": [{"size": "512"}]}}}, "dtype": {"type": "DT_FLOAT"}}}, {"name": "StatefulPartitionedCall/model/bidirectional/backward_lstm/PartitionedCall/time", "op": "Const", "attr": {"value": {"tensor": {"dtype": "DT_INT32", "tensorShape": {}}}, "dtype": {"type": "DT_INT32"}}}, {"name": "StatefulPartitionedCall/model/batch_normalization_2/batchnorm/mul", "op": "Const", "attr": {"value": {"tensor": {"dtype": "DT_FLOAT", "tensorShape": {"dim": [{"size": "64"}]}}}, "dtype": {"type": "DT_FLOAT"}}}, {"name": "StatefulPartitionedCall/model/batch_normalization_1/batchnorm/mul", "op": "Const", "attr": {"value": {"tensor": {"dtype": "DT_FLOAT", "tensorShape": {"dim": [{"size": "48"}]}}}, "dtype": {"type": "DT_FLOAT"}}}, {"name": "StatefulPartitionedCall/model/batch_normalization/batchnorm/mul", "op": "Const", "attr": {"value": {"tensor": {"dtype": "DT_FLOAT", "tensorShape": {"dim": [{"size": "3"}]}}}, "dtype": {"type": "DT_FLOAT"}}}, {"name": "StatefulPartitionedCall/model/batch_normalization/batchnorm/sub", "op": "Const", "attr": {"value": {"tensor": {"dtype": "DT_FLOAT", "tensorShape": {"dim": [{"size": "3"}]}}}, "dtype": {"type": "DT_FLOAT"}}}, {"name": "StatefulPartitionedCall/model/conv1d/conv1d/ExpandDims/dim", "op": "Const", "attr": {"value": {"tensor": {"dtype": "DT_INT32", "tensorShape": {}}}, "dtype": {"type": "DT_INT32"}}}, {"name": "StatefulPartitionedCall/model/conv1d/conv1d/ExpandDims_1", "op": "Const", "attr": {"value": {"tensor": {"dtype": "DT_FLOAT", "tensorShape": {"dim": [{"size": "1"}, {"size": "5"}, {"size": "3"}, {"size": "48"}]}}}, "dtype": {"type": "DT_FLOAT"}}}, {"name": "unknown_4", "op": "Const", "attr": {"value": {"tensor": {"dtype": "DT_FLOAT", "tensorShape": {"dim": [{"size": "48"}]}}}, "dtype": {"type": "DT_FLOAT"}}}, {"name": "StatefulPartitionedCall/model/batch_normalization_1/batchnorm/sub", "op": "Const", "attr": {"value": {"tensor": {"dtype": "DT_FLOAT", "tensorShape": {"dim": [{"size": "48"}]}}}, "dtype": {"type": "DT_FLOAT"}}}, {"name": "StatefulPartitionedCall/model/conv1d_1/conv1d/ExpandDims/dim", "op": "Const", "attr": {"value": {"tensor": {"dtype": "DT_INT32", "tensorShape": {}}}, "dtype": {"type": "DT_INT32"}}}, {"name": "StatefulPartitionedCall/model/conv1d_1/conv1d/ExpandDims_1", "op": "Const", "attr": {"value": {"tensor": {"dtype": "DT_FLOAT", "tensorShape": {"dim": [{"size": "1"}, {"size": "5"}, {"size": "48"}, {"size": "64"}]}}}, "dtype": {"type": "DT_FLOAT"}}}, {"name": "unknown_10", "op": "Const", "attr": {"value": {"tensor": {"dtype": "DT_FLOAT", "tensorShape": {"dim": [{"size": "64"}]}}}, "dtype": {"type": "DT_FLOAT"}}}, {"name": "StatefulPartitionedCall/model/batch_normalization_2/batchnorm/sub", "op": "Const", "attr": {"value": {"tensor": {"dtype": "DT_FLOAT", "tensorShape": {"dim": [{"size": "64"}]}}}, "dtype": {"type": "DT_FLOAT"}}}, {"name": "StatefulPartitionedCall/model/conv1d_2/conv1d/ExpandDims/dim", "op": "Const", "attr": {"value": {"tensor": {"dtype": "DT_INT32", "tensorShape": {}}}, "dtype": {"type": "DT_INT32"}}}, {"name": "StatefulPartitionedCall/model/conv1d_2/conv1d/ExpandDims_1", "op": "Const", "attr": {"value": {"tensor": {"dtype": "DT_FLOAT", "tensorShape": {"dim": [{"size": "1"}, {"size": "3"}, {"size": "64"}, {"size": "96"}]}}}, "dtype": {"type": "DT_FLOAT"}}}, {"name": "unknown_16", "op": "Const", "attr": {"value": {"tensor": {"dtype": "DT_FLOAT", "tensorShape": {"dim": [{"size": "96"}]}}}, "dtype": {"type": "DT_FLOAT"}}}, {"name": "StatefulPartitionedCall/model/bidirectional/backward_lstm/PartitionedCall/transpose/perm", "op": "Const", "attr": {"value": {"tensor": {"dtype": "DT_INT32", "tensorShape": {"dim": [{"size": "3"}]}}}, "dtype": {"type": "DT_INT32"}}}, {"name": "StatefulPartitionedCall/model/bidirectional/backward_lstm/PartitionedCall/strided_slice/stack", "op": "Const", "attr": {"value": {"tensor": {"dtype": "DT_INT32", "tensorShape": {"dim": [{"size": "1"}]}}}, "dtype": {"type": "DT_INT32"}}}, {"name": "StatefulPartitionedCall/model/bidirectional/backward_lstm/PartitionedCall/strided_slice/stack_1", "op": "Const", "attr": {"value": {"tensor": {"dtype": "DT_INT32", "tensorShape": {"dim": [{"size": "1"}]}}}, "dtype": {"type": "DT_INT32"}}}, {"name": "StatefulPartitionedCall/model/bidirectional/backward_lstm/PartitionedCall/strided_slice/stack_2", "op": "Const", "attr": {"value": {"tensor": {"dtype": "DT_INT32", "tensorShape": {"dim": [{"size": "1"}]}}}, "dtype": {"type": "DT_INT32"}}}, {"name": "StatefulPartitionedCall/model/bidirectional/backward_lstm/PartitionedCall/while/loop_counter", "op": "Const", "attr": {"value": {"tensor": {"dtype": "DT_INT32", "tensorShape": {}}}, "dtype": {"type": "DT_INT32"}}}, {"name": "StatefulPartitionedCall/model/bidirectional/backward_lstm/PartitionedCall/TensorArrayV2Stack/TensorListStack/element_shape", "op": "Const", "attr": {"value": {"tensor": {"dtype": "DT_INT32", "tensorShape": {"dim": [{"size": "2"}]}}}, "dtype": {"type": "DT_INT32"}}}, {"name": "StatefulPartitionedCall/model/bidirectional/backward_lstm/PartitionedCall/transpose_1/perm", "op": "Const", "attr": {"value": {"tensor": {"dtype": "DT_INT32", "tensorShape": {"dim": [{"size": "3"}]}}}, "dtype": {"type": "DT_INT32"}}}, {"name": "StatefulPartitionedCall/model/bidirectional/ReverseV2/axis", "op": "Const", "attr": {"value": {"tensor": {"dtype": "DT_INT32", "tensorShape": {"dim": [{"size": "1"}]}}}, "dtype": {"type": "DT_INT32"}}}, {"name": "StatefulPartitionedCall/model/bidirectional/concat/axis", "op": "Const", "attr": {"value": {"tensor": {"dtype": "DT_INT32", "tensorShape": {}}}, "dtype": {"type": "DT_INT32"}}}, {"name": "StatefulPartitionedCall/model/bidirectional_1/backward_lstm_1/PartitionedCall/transpose/perm", "op": "Const", "attr": {"value": {"tensor": {"dtype": "DT_INT32", "tensorShape": {"dim": [{"size": "3"}]}}}, "dtype": {"type": "DT_INT32"}}}, {"name": "StatefulPartitionedCall/model/bidirectional_1/backward_lstm_1/PartitionedCall/strided_slice/stack", "op": "Const", "attr": {"value": {"tensor": {"dtype": "DT_INT32", "tensorShape": {"dim": [{"size": "1"}]}}}, "dtype": {"type": "DT_INT32"}}}, {"name": "StatefulPartitionedCall/model/bidirectional_1/backward_lstm_1/PartitionedCall/strided_slice/stack_1", "op": "Const", "attr": {"value": {"tensor": {"dtype": "DT_INT32", "tensorShape": {"dim": [{"size": "1"}]}}}, "dtype": {"type": "DT_INT32"}}}, {"name": "StatefulPartitionedCall/model/bidirectional_1/backward_lstm_1/PartitionedCall/strided_slice/stack_2", "op": "Const", "attr": {"value": {"tensor": {"dtype": "DT_INT32", "tensorShape": {"dim": [{"size": "1"}]}}}, "dtype": {"type": "DT_INT32"}}}, {"name": "StatefulPartitionedCall/model/bidirectional_1/backward_lstm_1/PartitionedCall/while/loop_counter", "op": "Const", "attr": {"value": {"tensor": {"dtype": "DT_INT32", "tensorShape": {}}}, "dtype": {"type": "DT_INT32"}}}, {"name": "StatefulPartitionedCall/model/bidirectional_1/backward_lstm_1/PartitionedCall/TensorArrayV2Stack/TensorListStack/element_shape", "op": "Const", "attr": {"value": {"tensor": {"dtype": "DT_INT32", "tensorShape": {"dim": [{"size": "2"}]}}}, "dtype": {"type": "DT_INT32"}}}, {"name": "StatefulPartitionedCall/model/bidirectional_1/backward_lstm_1/PartitionedCall/transpose_1/perm", "op": "Const", "attr": {"value": {"tensor": {"dtype": "DT_INT32", "tensorShape": {"dim": [{"size": "3"}]}}}, "dtype": {"type": "DT_INT32"}}}, {"name": "StatefulPartitionedCall/model/bidirectional_1/ReverseV2/axis", "op": "Const", "attr": {"value": {"tensor": {"dtype": "DT_INT32", "tensorShape": {"dim": [{"size": "1"}]}}}, "dtype": {"type": "DT_INT32"}}}, {"name": "StatefulPartitionedCall/model/bidirectional_1/concat/axis", "op": "Const", "attr": {"value": {"tensor": {"dtype": "DT_INT32", "tensorShape": {}}}, "dtype": {"type": "DT_INT32"}}}, {"name": "StatefulPartitionedCall/model/bidirectional_2/backward_lstm_2/PartitionedCall/transpose/perm", "op": "Const", "attr": {"value": {"tensor": {"dtype": "DT_INT32", "tensorShape": {"dim": [{"size": "3"}]}}}, "dtype": {"type": "DT_INT32"}}}, {"name": "StatefulPartitionedCall/model/bidirectional_2/backward_lstm_2/PartitionedCall/strided_slice/stack", "op": "Const", "attr": {"value": {"tensor": {"dtype": "DT_INT32", "tensorShape": {"dim": [{"size": "1"}]}}}, "dtype": {"type": "DT_INT32"}}}, {"name": "StatefulPartitionedCall/model/bidirectional_2/backward_lstm_2/PartitionedCall/strided_slice/stack_1", "op": "Const", "attr": {"value": {"tensor": {"dtype": "DT_INT32", "tensorShape": {"dim": [{"size": "1"}]}}}, "dtype": {"type": "DT_INT32"}}}, {"name": "StatefulPartitionedCall/model/bidirectional_2/backward_lstm_2/PartitionedCall/strided_slice/stack_2", "op": "Const", "attr": {"value": {"tensor": {"dtype": "DT_INT32", "tensorShape": {"dim": [{"size": "1"}]}}}, "dtype": {"type": "DT_INT32"}}}, {"name": "StatefulPartitionedCall/model/bidirectional_2/backward_lstm_2/PartitionedCall/while/loop_counter", "op": "Const", "attr": {"value": {"tensor": {"dtype": "DT_INT32", "tensorShape": {}}}, "dtype": {"type": "DT_INT32"}}}, {"name": "StatefulPartitionedCall/model/bidirectional_2/backward_lstm_2/PartitionedCall/TensorArrayV2Stack/TensorListStack/element_shape", "op": "Const", "attr": {"value": {"tensor": {"dtype": "DT_INT32", "tensorShape": {"dim": [{"size": "2"}]}}}, "dtype": {"type": "DT_INT32"}}}, {"name": "StatefulPartitionedCall/model/bidirectional_2/backward_lstm_2/PartitionedCall/strided_slice_2/stack", "op": "Const", "attr": {"value": {"tensor": {"dtype": "DT_INT32", "tensorShape": {"dim": [{"size": "1"}]}}}, "dtype": {"type": "DT_INT32"}}}, {"name": "StatefulPartitionedCall/model/bidirectional_2/backward_lstm_2/PartitionedCall/strided_slice_2/stack_1", "op": "Const", "attr": {"value": {"tensor": {"dtype": "DT_INT32", "tensorShape": {"dim": [{"size": "1"}]}}}, "dtype": {"type": "DT_INT32"}}}, {"name": "StatefulPartitionedCall/model/bidirectional_2/backward_lstm_2/PartitionedCall/strided_slice_2/stack_2", "op": "Const", "attr": {"value": {"tensor": {"dtype": "DT_INT32", "tensorShape": {"dim": [{"size": "1"}]}}}, "dtype": {"type": "DT_INT32"}}}, {"name": "StatefulPartitionedCall/model/bidirectional_2/concat/axis", "op": "Const", "attr": {"value": {"tensor": {"dtype": "DT_INT32", "tensorShape": {}}}, "dtype": {"type": "DT_INT32"}}}, {"name": "unknown_35", "op": "Const", "attr": {"value": {"tensor": {"dtype": "DT_FLOAT", "tensorShape": {"dim": [{"size": "256"}, {"size": "345"}]}}}, "dtype": {"type": "DT_FLOAT"}}}, {"name": "unknown_36", "op": "Const", "attr": {"value": {"tensor": {"dtype": "DT_FLOAT", "tensorShape": {"dim": [{"size": "345"}]}}}, "dtype": {"type": "DT_FLOAT"}}}, {"name": "input_1", "op": "Placeholder", "attr": {"shape": {"shape": {"dim": [{"size": "-1"}, {"size": "-1"}, {"size": "3"}]}}, "dtype": {"type": "DT_FLOAT"}}}, {"name": "StatefulPartitionedCall/model/bidirectional_2/forward_lstm_2/PartitionedCall/while/enter/_357", "op": "Enter", "input": ["unknown_29"], "attr": {"T": {"type": "DT_FLOAT"}, "is_constant": {"b": false}, "parallel_iterations": {"i": "32"}, "frame_name": {"s": "U3RhdGVmdWxQYXJ0aXRpb25lZENhbGwvbW9kZWwvYmlkaXJlY3Rpb25hbF8yL2ZvcndhcmRfbHN0bV8yL1BhcnRpdGlvbmVkQ2FsbC93aGlsZQ=="}}}, {"name": "StatefulPartitionedCall/model/bidirectional_2/forward_lstm_2/PartitionedCall/while/enter/_358", "op": "Enter", "input": ["unknown_30"], "attr": {"T": {"type": "DT_FLOAT"}, "is_constant": {"b": false}, "parallel_iterations": {"i": "32"}, "frame_name": {"s": "U3RhdGVmdWxQYXJ0aXRpb25lZENhbGwvbW9kZWwvYmlkaXJlY3Rpb25hbF8yL2ZvcndhcmRfbHN0bV8yL1BhcnRpdGlvbmVkQ2FsbC93aGlsZQ=="}}}, {"name": "StatefulPartitionedCall/model/bidirectional_2/forward_lstm_2/PartitionedCall/while/enter/_359", "op": "Enter", "input": ["unknown_31"], "attr": {"T": {"type": "DT_FLOAT"}, "is_constant": {"b": false}, "parallel_iterations": {"i": "32"}, "frame_name": {"s": "U3RhdGVmdWxQYXJ0aXRpb25lZENhbGwvbW9kZWwvYmlkaXJlY3Rpb25hbF8yL2ZvcndhcmRfbHN0bV8yL1BhcnRpdGlvbmVkQ2FsbC93aGlsZQ=="}}}, {"name": "StatefulPartitionedCall/model/bidirectional_2/forward_lstm_2/PartitionedCall/while/enter/_351", "op": "Enter", "input": ["StatefulPartitionedCall/model/bidirectional_2/forward_lstm_2/PartitionedCall/time"], "attr": {"T": {"type": "DT_INT32"}, "is_constant": {"b": false}, "parallel_iterations": {"i": "32"}, "frame_name": {"s": "U3RhdGVmdWxQYXJ0aXRpb25lZENhbGwvbW9kZWwvYmlkaXJlY3Rpb25hbF8yL2ZvcndhcmRfbHN0bV8yL1BhcnRpdGlvbmVkQ2FsbC93aGlsZQ=="}}}, {"name": "StatefulPartitionedCall/model/bidirectional_2/forward_lstm_2/PartitionedCall/while/enter/_349", "op": "Enter", "input": ["StatefulPartitionedCall/model/bidirectional_2/forward_lstm_2/PartitionedCall/while/loop_counter"], "attr": {"T": {"type": "DT_INT32"}, "is_constant": {"b": false}, "parallel_iterations": {"i": "32"}, "frame_name": {"s": "U3RhdGVmdWxQYXJ0aXRpb25lZENhbGwvbW9kZWwvYmlkaXJlY3Rpb25hbF8yL2ZvcndhcmRfbHN0bV8yL1BhcnRpdGlvbmVkQ2FsbC93aGlsZQ=="}}}, {"name": "StatefulPartitionedCall/model/bidirectional_2/backward_lstm_2/PartitionedCall/while/enter/_417", "op": "Enter", "input": ["unknown_32"], "attr": {"T": {"type": "DT_FLOAT"}, "is_constant": {"b": false}, "parallel_iterations": {"i": "32"}, "frame_name": {"s": "U3RhdGVmdWxQYXJ0aXRpb25lZENhbGwvbW9kZWwvYmlkaXJlY3Rpb25hbF8yL2JhY2t3YXJkX2xzdG1fMi9QYXJ0aXRpb25lZENhbGwvd2hpbGU="}}}, {"name": "StatefulPartitionedCall/model/bidirectional_2/backward_lstm_2/PartitionedCall/while/enter/_418", "op": "Enter", "input": ["unknown_33"], "attr": {"T": {"type": "DT_FLOAT"}, "is_constant": {"b": false}, "parallel_iterations": {"i": "32"}, "frame_name": {"s": "U3RhdGVmdWxQYXJ0aXRpb25lZENhbGwvbW9kZWwvYmlkaXJlY3Rpb25hbF8yL2JhY2t3YXJkX2xzdG1fMi9QYXJ0aXRpb25lZENhbGwvd2hpbGU="}}}, {"name": "StatefulPartitionedCall/model/bidirectional_2/backward_lstm_2/PartitionedCall/while/enter/_419", "op": "Enter", "input": ["unknown_34"], "attr": {"T": {"type": "DT_FLOAT"}, "is_constant": {"b": false}, "parallel_iterations": {"i": "32"}, "frame_name": {"s": "U3RhdGVmdWxQYXJ0aXRpb25lZENhbGwvbW9kZWwvYmlkaXJlY3Rpb25hbF8yL2JhY2t3YXJkX2xzdG1fMi9QYXJ0aXRpb25lZENhbGwvd2hpbGU="}}}, {"name": "StatefulPartitionedCall/model/bidirectional_2/backward_lstm_2/PartitionedCall/while/enter/_411", "op": "Enter", "input": ["StatefulPartitionedCall/model/bidirectional_2/backward_lstm_2/PartitionedCall/time"], "attr": {"T": {"type": "DT_INT32"}, "is_constant": {"b": false}, "parallel_iterations": {"i": "32"}, "frame_name": {"s": "U3RhdGVmdWxQYXJ0aXRpb25lZENhbGwvbW9kZWwvYmlkaXJlY3Rpb25hbF8yL2JhY2t3YXJkX2xzdG1fMi9QYXJ0aXRpb25lZENhbGwvd2hpbGU="}}}, {"name": "StatefulPartitionedCall/model/bidirectional_1/forward_lstm_1/PartitionedCall/while/enter/_237", "op": "Enter", "input": ["unknown_23"], "attr": {"T": {"type": "DT_FLOAT"}, "is_constant": {"b": false}, "parallel_iterations": {"i": "32"}, "frame_name": {"s": "U3RhdGVmdWxQYXJ0aXRpb25lZENhbGwvbW9kZWwvYmlkaXJlY3Rpb25hbF8xL2ZvcndhcmRfbHN0bV8xL1BhcnRpdGlvbmVkQ2FsbC93aGlsZQ=="}}}, {"name": "StatefulPartitionedCall/model/bidirectional_1/forward_lstm_1/PartitionedCall/while/enter/_238", "op": "Enter", "input": ["unknown_24"], "attr": {"T": {"type": "DT_FLOAT"}, "is_constant": {"b": false}, "parallel_iterations": {"i": "32"}, "frame_name": {"s": "U3RhdGVmdWxQYXJ0aXRpb25lZENhbGwvbW9kZWwvYmlkaXJlY3Rpb25hbF8xL2ZvcndhcmRfbHN0bV8xL1BhcnRpdGlvbmVkQ2FsbC93aGlsZQ=="}}}, {"name": "StatefulPartitionedCall/model/bidirectional_1/forward_lstm_1/PartitionedCall/while/enter/_239", "op": "Enter", "input": ["unknown_25"], "attr": {"T": {"type": "DT_FLOAT"}, "is_constant": {"b": false}, "parallel_iterations": {"i": "32"}, "frame_name": {"s": "U3RhdGVmdWxQYXJ0aXRpb25lZENhbGwvbW9kZWwvYmlkaXJlY3Rpb25hbF8xL2ZvcndhcmRfbHN0bV8xL1BhcnRpdGlvbmVkQ2FsbC93aGlsZQ=="}}}, {"name": "StatefulPartitionedCall/model/bidirectional_1/forward_lstm_1/PartitionedCall/while/enter/_231", "op": "Enter", "input": ["StatefulPartitionedCall/model/bidirectional_1/forward_lstm_1/PartitionedCall/time"], "attr": {"T": {"type": "DT_INT32"}, "is_constant": {"b": false}, "parallel_iterations": {"i": "32"}, "frame_name": {"s": "U3RhdGVmdWxQYXJ0aXRpb25lZENhbGwvbW9kZWwvYmlkaXJlY3Rpb25hbF8xL2ZvcndhcmRfbHN0bV8xL1BhcnRpdGlvbmVkQ2FsbC93aGlsZQ=="}}}, {"name": "StatefulPartitionedCall/model/bidirectional_1/forward_lstm_1/PartitionedCall/while/enter/_229", "op": "Enter", "input": ["StatefulPartitionedCall/model/bidirectional_1/forward_lstm_1/PartitionedCall/while/loop_counter"], "attr": {"T": {"type": "DT_INT32"}, "is_constant": {"b": false}, "parallel_iterations": {"i": "32"}, "frame_name": {"s": "U3RhdGVmdWxQYXJ0aXRpb25lZENhbGwvbW9kZWwvYmlkaXJlY3Rpb25hbF8xL2ZvcndhcmRfbHN0bV8xL1BhcnRpdGlvbmVkQ2FsbC93aGlsZQ=="}}}, {"name": "StatefulPartitionedCall/model/bidirectional_1/backward_lstm_1/PartitionedCall/while/enter/_297", "op": "Enter", "input": ["unknown_26"], "attr": {"T": {"type": "DT_FLOAT"}, "is_constant": {"b": false}, "parallel_iterations": {"i": "32"}, "frame_name": {"s": "U3RhdGVmdWxQYXJ0aXRpb25lZENhbGwvbW9kZWwvYmlkaXJlY3Rpb25hbF8xL2JhY2t3YXJkX2xzdG1fMS9QYXJ0aXRpb25lZENhbGwvd2hpbGU="}}}, {"name": "StatefulPartitionedCall/model/bidirectional_1/backward_lstm_1/PartitionedCall/while/enter/_298", "op": "Enter", "input": ["unknown_27"], "attr": {"T": {"type": "DT_FLOAT"}, "is_constant": {"b": false}, "parallel_iterations": {"i": "32"}, "frame_name": {"s": "U3RhdGVmdWxQYXJ0aXRpb25lZENhbGwvbW9kZWwvYmlkaXJlY3Rpb25hbF8xL2JhY2t3YXJkX2xzdG1fMS9QYXJ0aXRpb25lZENhbGwvd2hpbGU="}}}, {"name": "StatefulPartitionedCall/model/bidirectional_1/backward_lstm_1/PartitionedCall/while/enter/_299", "op": "Enter", "input": ["unknown_28"], "attr": {"T": {"type": "DT_FLOAT"}, "is_constant": {"b": false}, "parallel_iterations": {"i": "32"}, "frame_name": {"s": "U3RhdGVmdWxQYXJ0aXRpb25lZENhbGwvbW9kZWwvYmlkaXJlY3Rpb25hbF8xL2JhY2t3YXJkX2xzdG1fMS9QYXJ0aXRpb25lZENhbGwvd2hpbGU="}}}, {"name": "StatefulPartitionedCall/model/bidirectional_1/backward_lstm_1/PartitionedCall/while/enter/_291", "op": "Enter", "input": ["StatefulPartitionedCall/model/bidirectional_1/backward_lstm_1/PartitionedCall/time"], "attr": {"T": {"type": "DT_INT32"}, "is_constant": {"b": false}, "parallel_iterations": {"i": "32"}, "frame_name": {"s": "U3RhdGVmdWxQYXJ0aXRpb25lZENhbGwvbW9kZWwvYmlkaXJlY3Rpb25hbF8xL2JhY2t3YXJkX2xzdG1fMS9QYXJ0aXRpb25lZENhbGwvd2hpbGU="}}}, {"name": "StatefulPartitionedCall/model/bidirectional/forward_lstm/PartitionedCall/while/enter/_117", "op": "Enter", "input": ["unknown_17"], "attr": {"T": {"type": "DT_FLOAT"}, "is_constant": {"b": false}, "parallel_iterations": {"i": "32"}, "frame_name": {"s": "U3RhdGVmdWxQYXJ0aXRpb25lZENhbGwvbW9kZWwvYmlkaXJlY3Rpb25hbC9mb3J3YXJkX2xzdG0vUGFydGl0aW9uZWRDYWxsL3doaWxl"}}}, {"name": "StatefulPartitionedCall/model/bidirectional/forward_lstm/PartitionedCall/while/enter/_118", "op": "Enter", "input": ["unknown_18"], "attr": {"T": {"type": "DT_FLOAT"}, "is_constant": {"b": false}, "parallel_iterations": {"i": "32"}, "frame_name": {"s": "U3RhdGVmdWxQYXJ0aXRpb25lZENhbGwvbW9kZWwvYmlkaXJlY3Rpb25hbC9mb3J3YXJkX2xzdG0vUGFydGl0aW9uZWRDYWxsL3doaWxl"}}}, {"name": "StatefulPartitionedCall/model/bidirectional/forward_lstm/PartitionedCall/while/enter/_119", "op": "Enter", "input": ["unknown_19"], "attr": {"T": {"type": "DT_FLOAT"}, "is_constant": {"b": false}, "parallel_iterations": {"i": "32"}, "frame_name": {"s": "U3RhdGVmdWxQYXJ0aXRpb25lZENhbGwvbW9kZWwvYmlkaXJlY3Rpb25hbC9mb3J3YXJkX2xzdG0vUGFydGl0aW9uZWRDYWxsL3doaWxl"}}}, {"name": "StatefulPartitionedCall/model/bidirectional/forward_lstm/PartitionedCall/while/enter/_111", "op": "Enter", "input": ["StatefulPartitionedCall/model/bidirectional/forward_lstm/PartitionedCall/time"], "attr": {"T": {"type": "DT_INT32"}, "is_constant": {"b": false}, "parallel_iterations": {"i": "32"}, "frame_name": {"s": "U3RhdGVmdWxQYXJ0aXRpb25lZENhbGwvbW9kZWwvYmlkaXJlY3Rpb25hbC9mb3J3YXJkX2xzdG0vUGFydGl0aW9uZWRDYWxsL3doaWxl"}}}, {"name": "StatefulPartitionedCall/model/bidirectional/forward_lstm/PartitionedCall/while/enter/_109", "op": "Enter", "input": ["StatefulPartitionedCall/model/bidirectional/forward_lstm/PartitionedCall/while/loop_counter"], "attr": {"T": {"type": "DT_INT32"}, "is_constant": {"b": false}, "parallel_iterations": {"i": "32"}, "frame_name": {"s": "U3RhdGVmdWxQYXJ0aXRpb25lZENhbGwvbW9kZWwvYmlkaXJlY3Rpb25hbC9mb3J3YXJkX2xzdG0vUGFydGl0aW9uZWRDYWxsL3doaWxl"}}}, {"name": "StatefulPartitionedCall/model/bidirectional/backward_lstm/PartitionedCall/while/enter/_177", "op": "Enter", "input": ["unknown_20"], "attr": {"T": {"type": "DT_FLOAT"}, "is_constant": {"b": false}, "parallel_iterations": {"i": "32"}, "frame_name": {"s": "U3RhdGVmdWxQYXJ0aXRpb25lZENhbGwvbW9kZWwvYmlkaXJlY3Rpb25hbC9iYWNrd2FyZF9sc3RtL1BhcnRpdGlvbmVkQ2FsbC93aGlsZQ=="}}}, {"name": "StatefulPartitionedCall/model/bidirectional/backward_lstm/PartitionedCall/while/enter/_178", "op": "Enter", "input": ["unknown_21"], "attr": {"T": {"type": "DT_FLOAT"}, "is_constant": {"b": false}, "parallel_iterations": {"i": "32"}, "frame_name": {"s": "U3RhdGVmdWxQYXJ0aXRpb25lZENhbGwvbW9kZWwvYmlkaXJlY3Rpb25hbC9iYWNrd2FyZF9sc3RtL1BhcnRpdGlvbmVkQ2FsbC93aGlsZQ=="}}}, {"name": "StatefulPartitionedCall/model/bidirectional/backward_lstm/PartitionedCall/while/enter/_179", "op": "Enter", "input": ["unknown_22"], "attr": {"T": {"type": "DT_FLOAT"}, "is_constant": {"b": false}, "parallel_iterations": {"i": "32"}, "frame_name": {"s": "U3RhdGVmdWxQYXJ0aXRpb25lZENhbGwvbW9kZWwvYmlkaXJlY3Rpb25hbC9iYWNrd2FyZF9sc3RtL1BhcnRpdGlvbmVkQ2FsbC93aGlsZQ=="}}}, {"name": "StatefulPartitionedCall/model/bidirectional/backward_lstm/PartitionedCall/while/enter/_171", "op": "Enter", "input": ["StatefulPartitionedCall/model/bidirectional/backward_lstm/PartitionedCall/time"], "attr": {"T": {"type": "DT_INT32"}, "is_constant": {"b": false}, "parallel_iterations": {"i": "32"}, "frame_name": {"s": "U3RhdGVmdWxQYXJ0aXRpb25lZENhbGwvbW9kZWwvYmlkaXJlY3Rpb25hbC9iYWNrd2FyZF9sc3RtL1BhcnRpdGlvbmVkQ2FsbC93aGlsZQ=="}}}, {"name": "StatefulPartitionedCall/model/bidirectional/backward_lstm/PartitionedCall/while/enter/_169", "op": "Enter", "input": ["StatefulPartitionedCall/model/bidirectional/backward_lstm/PartitionedCall/while/loop_counter"], "attr": {"T": {"type": "DT_INT32"}, "is_constant": {"b": false}, "parallel_iterations": {"i": "32"}, "frame_name": {"s": "U3RhdGVmdWxQYXJ0aXRpb25lZENhbGwvbW9kZWwvYmlkaXJlY3Rpb25hbC9iYWNrd2FyZF9sc3RtL1BhcnRpdGlvbmVkQ2FsbC93aGlsZQ=="}}}, {"name": "StatefulPartitionedCall/model/bidirectional_1/backward_lstm_1/PartitionedCall/while/enter/_289", "op": "Enter", "input": ["StatefulPartitionedCall/model/bidirectional_1/backward_lstm_1/PartitionedCall/while/loop_counter"], "attr": {"T": {"type": "DT_INT32"}, "is_constant": {"b": false}, "parallel_iterations": {"i": "32"}, "frame_name": {"s": "U3RhdGVmdWxQYXJ0aXRpb25lZENhbGwvbW9kZWwvYmlkaXJlY3Rpb25hbF8xL2JhY2t3YXJkX2xzdG1fMS9QYXJ0aXRpb25lZENhbGwvd2hpbGU="}}}, {"name": "StatefulPartitionedCall/model/bidirectional_2/backward_lstm_2/PartitionedCall/while/enter/_409", "op": "Enter", "input": ["StatefulPartitionedCall/model/bidirectional_2/backward_lstm_2/PartitionedCall/while/loop_counter"], "attr": {"T": {"type": "DT_INT32"}, "is_constant": {"b": false}, "parallel_iterations": {"i": "32"}, "frame_name": {"s": "U3RhdGVmdWxQYXJ0aXRpb25lZENhbGwvbW9kZWwvYmlkaXJlY3Rpb25hbF8yL2JhY2t3YXJkX2xzdG1fMi9QYXJ0aXRpb25lZENhbGwvd2hpbGU="}}}, {"name": "StatefulPartitionedCall/model/batch_normalization/batchnorm/mul_1", "op": "Mul", "input": ["input_1", "StatefulPartitionedCall/model/batch_normalization/batchnorm/mul"], "attr": {"T": {"type": "DT_FLOAT"}}}, {"name": "StatefulPartitionedCall/model/bidirectional_2/forward_lstm_2/PartitionedCall/while/merge/_368", "op": "Merge", "input": ["StatefulPartitionedCall/model/bidirectional_2/forward_lstm_2/PartitionedCall/while/enter/_357", "StatefulPartitionedCall/model/bidirectional_2/forward_lstm_2/PartitionedCall/while/next_iteration/_404"], "attr": {"T": {"type": "DT_FLOAT"}, "N": {"i": "2"}}}, {"name": "StatefulPartitionedCall/model/bidirectional_2/forward_lstm_2/PartitionedCall/while/merge/_369", "op": "Merge", "input": ["StatefulPartitionedCall/model/bidirectional_2/forward_lstm_2/PartitionedCall/while/enter/_358", "StatefulPartitionedCall/model/bidirectional_2/forward_lstm_2/PartitionedCall/while/next_iteration/_405"], "attr": {"T": {"type": "DT_FLOAT"}, "N": {"i": "2"}}}, {"name": "StatefulPartitionedCall/model/bidirectional_2/forward_lstm_2/PartitionedCall/while/merge/_370", "op": "Merge", "input": ["StatefulPartitionedCall/model/bidirectional_2/forward_lstm_2/PartitionedCall/while/enter/_359", "StatefulPartitionedCall/model/bidirectional_2/forward_lstm_2/PartitionedCall/while/next_iteration/_406"], "attr": {"T": {"type": "DT_FLOAT"}, "N": {"i": "2"}}}, {"name": "StatefulPartitionedCall/model/bidirectional_2/forward_lstm_2/PartitionedCall/while/merge/_362", "op": "Merge", "input": ["StatefulPartitionedCall/model/bidirectional_2/forward_lstm_2/PartitionedCall/while/enter/_351", "StatefulPartitionedCall/model/bidirectional_2/forward_lstm_2/PartitionedCall/while/next_iteration/_398"], "attr": {"T": {"type": "DT_INT32"}, "N": {"i": "2"}}}, {"name": "StatefulPartitionedCall/model/bidirectional_2/forward_lstm_2/PartitionedCall/while/merge/_360", "op": "Merge", "input": ["StatefulPartitionedCall/model/bidirectional_2/forward_lstm_2/PartitionedCall/while/enter/_349", "StatefulPartitionedCall/model/bidirectional_2/forward_lstm_2/PartitionedCall/while/next_iteration/_396"], "attr": {"T": {"type": "DT_INT32"}, "N": {"i": "2"}}}, {"name": "StatefulPartitionedCall/model/bidirectional_2/backward_lstm_2/PartitionedCall/while/merge/_428", "op": "Merge", "input": ["StatefulPartitionedCall/model/bidirectional_2/backward_lstm_2/PartitionedCall/while/enter/_417", "StatefulPartitionedCall/model/bidirectional_2/backward_lstm_2/PartitionedCall/while/next_iteration/_464"], "attr": {"T": {"type": "DT_FLOAT"}, "N": {"i": "2"}}}, {"name": "StatefulPartitionedCall/model/bidirectional_2/backward_lstm_2/PartitionedCall/while/merge/_429", "op": "Merge", "input": ["StatefulPartitionedCall/model/bidirectional_2/backward_lstm_2/PartitionedCall/while/enter/_418", "StatefulPartitionedCall/model/bidirectional_2/backward_lstm_2/PartitionedCall/while/next_iteration/_465"], "attr": {"T": {"type": "DT_FLOAT"}, "N": {"i": "2"}}}, {"name": "StatefulPartitionedCall/model/bidirectional_2/backward_lstm_2/PartitionedCall/while/merge/_430", "op": "Merge", "input": ["StatefulPartitionedCall/model/bidirectional_2/backward_lstm_2/PartitionedCall/while/enter/_419", "StatefulPartitionedCall/model/bidirectional_2/backward_lstm_2/PartitionedCall/while/next_iteration/_466"], "attr": {"T": {"type": "DT_FLOAT"}, "N": {"i": "2"}}}, {"name": "StatefulPartitionedCall/model/bidirectional_2/backward_lstm_2/PartitionedCall/while/merge/_422", "op": "Merge", "input": ["StatefulPartitionedCall/model/bidirectional_2/backward_lstm_2/PartitionedCall/while/enter/_411", "StatefulPartitionedCall/model/bidirectional_2/backward_lstm_2/PartitionedCall/while/next_iteration/_458"], "attr": {"T": {"type": "DT_INT32"}, "N": {"i": "2"}}}, {"name": "StatefulPartitionedCall/model/bidirectional_1/forward_lstm_1/PartitionedCall/while/merge/_248", "op": "Merge", "input": ["StatefulPartitionedCall/model/bidirectional_1/forward_lstm_1/PartitionedCall/while/enter/_237", "StatefulPartitionedCall/model/bidirectional_1/forward_lstm_1/PartitionedCall/while/next_iteration/_284"], "attr": {"T": {"type": "DT_FLOAT"}, "N": {"i": "2"}}}, {"name": "StatefulPartitionedCall/model/bidirectional_1/forward_lstm_1/PartitionedCall/while/merge/_249", "op": "Merge", "input": ["StatefulPartitionedCall/model/bidirectional_1/forward_lstm_1/PartitionedCall/while/enter/_238", "StatefulPartitionedCall/model/bidirectional_1/forward_lstm_1/PartitionedCall/while/next_iteration/_285"], "attr": {"T": {"type": "DT_FLOAT"}, "N": {"i": "2"}}}, {"name": "StatefulPartitionedCall/model/bidirectional_1/forward_lstm_1/PartitionedCall/while/merge/_250", "op": "Merge", "input": ["StatefulPartitionedCall/model/bidirectional_1/forward_lstm_1/PartitionedCall/while/enter/_239", "StatefulPartitionedCall/model/bidirectional_1/forward_lstm_1/PartitionedCall/while/next_iteration/_286"], "attr": {"T": {"type": "DT_FLOAT"}, "N": {"i": "2"}}}, {"name": "StatefulPartitionedCall/model/bidirectional_1/forward_lstm_1/PartitionedCall/while/merge/_242", "op": "Merge", "input": ["StatefulPartitionedCall/model/bidirectional_1/forward_lstm_1/PartitionedCall/while/enter/_231", "StatefulPartitionedCall/model/bidirectional_1/forward_lstm_1/PartitionedCall/while/next_iteration/_278"], "attr": {"T": {"type": "DT_INT32"}, "N": {"i": "2"}}}, {"name": "StatefulPartitionedCall/model/bidirectional_1/forward_lstm_1/PartitionedCall/while/merge/_240", "op": "Merge", "input": ["StatefulPartitionedCall/model/bidirectional_1/forward_lstm_1/PartitionedCall/while/enter/_229", "StatefulPartitionedCall/model/bidirectional_1/forward_lstm_1/PartitionedCall/while/next_iteration/_276"], "attr": {"T": {"type": "DT_INT32"}, "N": {"i": "2"}}}, {"name": "StatefulPartitionedCall/model/bidirectional_1/backward_lstm_1/PartitionedCall/while/merge/_308", "op": "Merge", "input": ["StatefulPartitionedCall/model/bidirectional_1/backward_lstm_1/PartitionedCall/while/enter/_297", "StatefulPartitionedCall/model/bidirectional_1/backward_lstm_1/PartitionedCall/while/next_iteration/_344"], "attr": {"T": {"type": "DT_FLOAT"}, "N": {"i": "2"}}}, {"name": "StatefulPartitionedCall/model/bidirectional_1/backward_lstm_1/PartitionedCall/while/merge/_309", "op": "Merge", "input": ["StatefulPartitionedCall/model/bidirectional_1/backward_lstm_1/PartitionedCall/while/enter/_298", "StatefulPartitionedCall/model/bidirectional_1/backward_lstm_1/PartitionedCall/while/next_iteration/_345"], "attr": {"T": {"type": "DT_FLOAT"}, "N": {"i": "2"}}}, {"name": "StatefulPartitionedCall/model/bidirectional_1/backward_lstm_1/PartitionedCall/while/merge/_310", "op": "Merge", "input": ["StatefulPartitionedCall/model/bidirectional_1/backward_lstm_1/PartitionedCall/while/enter/_299", "StatefulPartitionedCall/model/bidirectional_1/backward_lstm_1/PartitionedCall/while/next_iteration/_346"], "attr": {"T": {"type": "DT_FLOAT"}, "N": {"i": "2"}}}, {"name": "StatefulPartitionedCall/model/bidirectional_1/backward_lstm_1/PartitionedCall/while/merge/_302", "op": "Merge", "input": ["StatefulPartitionedCall/model/bidirectional_1/backward_lstm_1/PartitionedCall/while/enter/_291", "StatefulPartitionedCall/model/bidirectional_1/backward_lstm_1/PartitionedCall/while/next_iteration/_338"], "attr": {"T": {"type": "DT_INT32"}, "N": {"i": "2"}}}, {"name": "StatefulPartitionedCall/model/bidirectional/forward_lstm/PartitionedCall/while/merge/_128", "op": "Merge", "input": ["StatefulPartitionedCall/model/bidirectional/forward_lstm/PartitionedCall/while/enter/_117", "StatefulPartitionedCall/model/bidirectional/forward_lstm/PartitionedCall/while/next_iteration/_164"], "attr": {"T": {"type": "DT_FLOAT"}, "N": {"i": "2"}}}, {"name": "StatefulPartitionedCall/model/bidirectional/forward_lstm/PartitionedCall/while/merge/_129", "op": "Merge", "input": ["StatefulPartitionedCall/model/bidirectional/forward_lstm/PartitionedCall/while/enter/_118", "StatefulPartitionedCall/model/bidirectional/forward_lstm/PartitionedCall/while/next_iteration/_165"], "attr": {"T": {"type": "DT_FLOAT"}, "N": {"i": "2"}}}, {"name": "StatefulPartitionedCall/model/bidirectional/forward_lstm/PartitionedCall/while/merge/_130", "op": "Merge", "input": ["StatefulPartitionedCall/model/bidirectional/forward_lstm/PartitionedCall/while/enter/_119", "StatefulPartitionedCall/model/bidirectional/forward_lstm/PartitionedCall/while/next_iteration/_166"], "attr": {"T": {"type": "DT_FLOAT"}, "N": {"i": "2"}}}, {"name": "StatefulPartitionedCall/model/bidirectional/forward_lstm/PartitionedCall/while/merge/_122", "op": "Merge", "input": ["StatefulPartitionedCall/model/bidirectional/forward_lstm/PartitionedCall/while/enter/_111", "StatefulPartitionedCall/model/bidirectional/forward_lstm/PartitionedCall/while/next_iteration/_158"], "attr": {"T": {"type": "DT_INT32"}, "N": {"i": "2"}}}, {"name": "StatefulPartitionedCall/model/bidirectional/forward_lstm/PartitionedCall/while/merge/_120", "op": "Merge", "input": ["StatefulPartitionedCall/model/bidirectional/forward_lstm/PartitionedCall/while/enter/_109", "StatefulPartitionedCall/model/bidirectional/forward_lstm/PartitionedCall/while/next_iteration/_156"], "attr": {"T": {"type": "DT_INT32"}, "N": {"i": "2"}}}, {"name": "StatefulPartitionedCall/model/bidirectional/backward_lstm/PartitionedCall/while/merge/_188", "op": "Merge", "input": ["StatefulPartitionedCall/model/bidirectional/backward_lstm/PartitionedCall/while/enter/_177", "StatefulPartitionedCall/model/bidirectional/backward_lstm/PartitionedCall/while/next_iteration/_224"], "attr": {"T": {"type": "DT_FLOAT"}, "N": {"i": "2"}}}, {"name": "StatefulPartitionedCall/model/bidirectional/backward_lstm/PartitionedCall/while/merge/_189", "op": "Merge", "input": ["StatefulPartitionedCall/model/bidirectional/backward_lstm/PartitionedCall/while/enter/_178", "StatefulPartitionedCall/model/bidirectional/backward_lstm/PartitionedCall/while/next_iteration/_225"], "attr": {"T": {"type": "DT_FLOAT"}, "N": {"i": "2"}}}, {"name": "StatefulPartitionedCall/model/bidirectional/backward_lstm/PartitionedCall/while/merge/_190", "op": "Merge", "input": ["StatefulPartitionedCall/model/bidirectional/backward_lstm/PartitionedCall/while/enter/_179", "StatefulPartitionedCall/model/bidirectional/backward_lstm/PartitionedCall/while/next_iteration/_226"], "attr": {"T": {"type": "DT_FLOAT"}, "N": {"i": "2"}}}, {"name": "StatefulPartitionedCall/model/bidirectional/backward_lstm/PartitionedCall/while/merge/_182", "op": "Merge", "input": ["StatefulPartitionedCall/model/bidirectional/backward_lstm/PartitionedCall/while/enter/_171", "StatefulPartitionedCall/model/bidirectional/backward_lstm/PartitionedCall/while/next_iteration/_218"], "attr": {"T": {"type": "DT_INT32"}, "N": {"i": "2"}}}, {"name": "StatefulPartitionedCall/model/bidirectional/backward_lstm/PartitionedCall/while/merge/_180", "op": "Merge", "input": ["StatefulPartitionedCall/model/bidirectional/backward_lstm/PartitionedCall/while/enter/_169", "StatefulPartitionedCall/model/bidirectional/backward_lstm/PartitionedCall/while/next_iteration/_216"], "attr": {"T": {"type": "DT_INT32"}, "N": {"i": "2"}}}, {"name": "StatefulPartitionedCall/model/bidirectional_1/backward_lstm_1/PartitionedCall/while/merge/_300", "op": "Merge", "input": ["StatefulPartitionedCall/model/bidirectional_1/backward_lstm_1/PartitionedCall/while/enter/_289", "StatefulPartitionedCall/model/bidirectional_1/backward_lstm_1/PartitionedCall/while/next_iteration/_336"], "attr": {"T": {"type": "DT_INT32"}, "N": {"i": "2"}}}, {"name": "StatefulPartitionedCall/model/bidirectional_2/backward_lstm_2/PartitionedCall/while/merge/_420", "op": "Merge", "input": ["StatefulPartitionedCall/model/bidirectional_2/backward_lstm_2/PartitionedCall/while/enter/_409", "StatefulPartitionedCall/model/bidirectional_2/backward_lstm_2/PartitionedCall/while/next_iteration/_456"], "attr": {"T": {"type": "DT_INT32"}, "N": {"i": "2"}}}, {"name": "StatefulPartitionedCall/model/batch_normalization/batchnorm/add_1", "op": "AddV2", "input": ["StatefulPartitionedCall/model/batch_normalization/batchnorm/mul_1", "StatefulPartitionedCall/model/batch_normalization/batchnorm/sub"], "attr": {"T": {"type": "DT_FLOAT"}}}, {"name": "StatefulPartitionedCall/model/conv1d/conv1d/ExpandDims", "op": "ExpandDims", "input": ["StatefulPartitionedCall/model/batch_normalization/batchnorm/add_1", "StatefulPartitionedCall/model/conv1d/conv1d/ExpandDims/dim"], "attr": {"Tdim": {"type": "DT_INT32"}, "T": {"type": "DT_FLOAT"}}}, {"name": "StatefulPartitionedCall/model/conv1d/conv1d", "op": "_FusedConv2D", "input": ["StatefulPartitionedCall/model/conv1d/conv1d/ExpandDims", "StatefulPartitionedCall/model/conv1d/conv1d/ExpandDims_1", "unknown_4"], "device": "/device:CPU:0", "attr": {"dilations": {"list": {"i": ["1", "1", "1", "1"]}}, "T": {"type": "DT_FLOAT"}, "data_format": {"s": "TkhXQw=="}, "strides": {"list": {"i": ["1", "1", "1", "1"]}}, "explicit_paddings": {"list": {}}, "use_cudnn_on_gpu": {"b": true}, "num_args": {"i": "1"}, "epsilon": {"f": 0.0}, "padding": {"s": "U0FNRQ=="}, "fused_ops": {"list": {"s": ["Qmlhc0FkZA=="]}}}}, {"name": "StatefulPartitionedCall/model/conv1d/BiasAdd", "op": "Squeeze", "input": ["StatefulPartitionedCall/model/conv1d/conv1d"], "attr": {"squeeze_dims": {"list": {"i": ["-3"]}}, "T": {"type": "DT_FLOAT"}}}, {"name": "StatefulPartitionedCall/model/conv1d/mul", "op": "Mul", "input": ["StatefulPartitionedCall/model/batch_normalization_1/batchnorm/mul", "StatefulPartitionedCall/model/conv1d/BiasAdd"], "attr": {"_grappler_ArithmeticOptimizer_MinimizeBroadcasts": {"b": true}, "T": {"type": "DT_FLOAT"}}}, {"name": "StatefulPartitionedCall/model/conv1d/Sigmoid", "op": "Sigmoid", "input": ["StatefulPartitionedCall/model/conv1d/BiasAdd"], "attr": {"T": {"type": "DT_FLOAT"}}}, {"name": "StatefulPartitionedCall/model/batch_normalization_1/batchnorm/mul_1", "op": "Mul", "input": ["StatefulPartitionedCall/model/conv1d/mul", "StatefulPartitionedCall/model/conv1d/Sigmoid"], "attr": {"_grappler_ArithmeticOptimizer_MinimizeBroadcasts": {"b": true}, "T": {"type": "DT_FLOAT"}}}, {"name": "StatefulPartitionedCall/model/batch_normalization_1/batchnorm/add_1", "op": "AddV2", "input": ["StatefulPartitionedCall/model/batch_normalization_1/batchnorm/mul_1", "StatefulPartitionedCall/model/batch_normalization_1/batchnorm/sub"], "attr": {"T": {"type": "DT_FLOAT"}}}, {"name": "StatefulPartitionedCall/model/conv1d_1/conv1d/ExpandDims", "op": "ExpandDims", "input": ["StatefulPartitionedCall/model/batch_normalization_1/batchnorm/add_1", "StatefulPartitionedCall/model/conv1d_1/conv1d/ExpandDims/dim"], "attr": {"Tdim": {"type": "DT_INT32"}, "T": {"type": "DT_FLOAT"}}}, {"name": "StatefulPartitionedCall/model/conv1d_1/conv1d", "op": "_FusedConv2D", "input": ["StatefulPartitionedCall/model/conv1d_1/conv1d/ExpandDims", "StatefulPartitionedCall/model/conv1d_1/conv1d/ExpandDims_1", "unknown_10"], "device": "/device:CPU:0", "attr": {"dilations": {"list": {"i": ["1", "1", "1", "1"]}}, "T": {"type": "DT_FLOAT"}, "data_format": {"s": "TkhXQw=="}, "strides": {"list": {"i": ["1", "1", "1", "1"]}}, "explicit_paddings": {"list": {}}, "use_cudnn_on_gpu": {"b": true}, "num_args": {"i": "1"}, "epsilon": {"f": 0.0}, "padding": {"s": "U0FNRQ=="}, "fused_ops": {"list": {"s": ["Qmlhc0FkZA=="]}}}}, {"name": "StatefulPartitionedCall/model/conv1d_1/BiasAdd", "op": "Squeeze", "input": ["StatefulPartitionedCall/model/conv1d_1/conv1d"], "attr": {"squeeze_dims": {"list": {"i": ["-3"]}}, "T": {"type": "DT_FLOAT"}}}, {"name": "StatefulPartitionedCall/model/conv1d_1/mul", "op": "Mul", "input": ["StatefulPartitionedCall/model/batch_normalization_2/batchnorm/mul", "StatefulPartitionedCall/model/conv1d_1/BiasAdd"], "attr": {"_grappler_ArithmeticOptimizer_MinimizeBroadcasts": {"b": true}, "T": {"type": "DT_FLOAT"}}}, {"name": "StatefulPartitionedCall/model/conv1d_1/Sigmoid", "op": "Sigmoid", "input": ["StatefulPartitionedCall/model/conv1d_1/BiasAdd"], "attr": {"T": {"type": "DT_FLOAT"}}}, {"name": "StatefulPartitionedCall/model/batch_normalization_2/batchnorm/mul_1", "op": "Mul", "input": ["StatefulPartitionedCall/model/conv1d_1/mul", "StatefulPartitionedCall/model/conv1d_1/Sigmoid"], "attr": {"_grappler_ArithmeticOptimizer_MinimizeBroadcasts": {"b": true}, "T": {"type": "DT_FLOAT"}}}, {"name": "StatefulPartitionedCall/model/batch_normalization_2/batchnorm/add_1", "op": "AddV2", "input": ["StatefulPartitionedCall/model/batch_normalization_2/batchnorm/mul_1", "StatefulPartitionedCall/model/batch_normalization_2/batchnorm/sub"], "attr": {"T": {"type": "DT_FLOAT"}}}, {"name": "StatefulPartitionedCall/model/conv1d_2/conv1d/ExpandDims", "op": "ExpandDims", "input": ["StatefulPartitionedCall/model/batch_normalization_2/batchnorm/add_1", "StatefulPartitionedCall/model/conv1d_2/conv1d/ExpandDims/dim"], "attr": {"Tdim": {"type": "DT_INT32"}, "T": {"type": "DT_FLOAT"}}}, {"name": "StatefulPartitionedCall/model/conv1d_2/conv1d", "op": "_FusedConv2D", "input": ["StatefulPartitionedCall/model/conv1d_2/conv1d/ExpandDims", "StatefulPartitionedCall/model/conv1d_2/conv1d/ExpandDims_1", "unknown_16"], "device": "/device:CPU:0", "attr": {"dilations": {"list": {"i": ["1", "1", "1", "1"]}}, "T": {"type": "DT_FLOAT"}, "data_format": {"s": "TkhXQw=="}, "strides": {"list": {"i": ["1", "1", "1", "1"]}}, "explicit_paddings": {"list": {}}, "use_cudnn_on_gpu": {"b": true}, "num_args": {"i": "1"}, "epsilon": {"f": 0.0}, "padding": {"s": "U0FNRQ=="}, "fused_ops": {"list": {"s": ["Qmlhc0FkZA=="]}}}}, {"name": "StatefulPartitionedCall/model/conv1d_2/BiasAdd", "op": "Squeeze", "input": ["StatefulPartitionedCall/model/conv1d_2/conv1d"], "attr": {"squeeze_dims": {"list": {"i": ["-3"]}}, "T": {"type": "DT_FLOAT"}}}, {"name": "StatefulPartitionedCall/model/conv1d_2/Sigmoid", "op": "Sigmoid", "input": ["StatefulPartitionedCall/model/conv1d_2/BiasAdd"], "attr": {"T": {"type": "DT_FLOAT"}}}, {"name": "StatefulPartitionedCall/model/conv1d_2/mul", "op": "Mul", "input": ["StatefulPartitionedCall/model/conv1d_2/BiasAdd", "StatefulPartitionedCall/model/conv1d_2/Sigmoid"], "attr": {"T": {"type": "DT_FLOAT"}}}, {"name": "StatefulPartitionedCall/model/bidirectional/forward_lstm/Shape", "op": "Shape", "input": ["StatefulPartitionedCall/model/conv1d_2/mul"], "attr": {"T": {"type": "DT_FLOAT"}, "out_type": {"type": "DT_INT32"}}}, {"name": "StatefulPartitionedCall/model/bidirectional/forward_lstm/PartitionedCall/transpose", "op": "Transpose", "input": ["StatefulPartitionedCall/model/conv1d_2/mul", "StatefulPartitionedCall/model/bidirectional/forward_lstm/PartitionedCall/transpose/perm"], "attr": {"Tperm": {"type": "DT_INT32"}, "T": {"type": "DT_FLOAT"}}}, {"name": "StatefulPartitionedCall/model/bidirectional/backward_lstm/Shape", "op": "Shape", "input": ["StatefulPartitionedCall/model/conv1d_2/mul"], "attr": {"T": {"type": "DT_FLOAT"}, "out_type": {"type": "DT_INT32"}}}, {"name": "StatefulPartitionedCall/model/bidirectional/backward_lstm/PartitionedCall/transpose", "op": "Transpose", "input": ["StatefulPartitionedCall/model/conv1d_2/mul", "StatefulPartitionedCall/model/bidirectional/backward_lstm/PartitionedCall/transpose/perm"], "attr": {"Tperm": {"type": "DT_INT32"}, "T": {"type": "DT_FLOAT"}}}, {"name": "StatefulPartitionedCall/model/bidirectional/forward_lstm/strided_slice", "op": "StridedSlice", "input": ["StatefulPartitionedCall/model/bidirectional/forward_lstm/Shape", "StatefulPartitionedCall/model/bidirectional/forward_lstm/strided_slice/stack", "StatefulPartitionedCall/model/bidirectional/forward_lstm/strided_slice/stack_1", "StatefulPartitionedCall/model/bidirectional/forward_lstm/strided_slice/stack_2"], "attr": {"T": {"type": "DT_INT32"}, "Index": {"type": "DT_INT32"}, "shrink_axis_mask": {"i": "1"}, "ellipsis_mask": {"i": "0"}, "begin_mask": {"i": "0"}, "new_axis_mask": {"i": "0"}, "end_mask": {"i": "0"}}}, {"name": "StatefulPartitionedCall/model/bidirectional/forward_lstm/PartitionedCall/TensorArrayUnstack/TensorListFromTensor", "op": "TensorListFromTensor", "input": ["StatefulPartitionedCall/model/bidirectional/forward_lstm/PartitionedCall/transpose", "StatefulPartitionedCall/model/bidirectional/forward_lstm/PartitionedCall/TensorArrayUnstack/TensorListFromTensor/element_shape"], "attr": {"shape_type": {"type": "DT_INT32"}, "element_dtype": {"type": "DT_FLOAT"}}}, {"name": "StatefulPartitionedCall/model/bidirectional/forward_lstm/PartitionedCall/Shape", "op": "Shape", "input": ["StatefulPartitionedCall/model/bidirectional/forward_lstm/PartitionedCall/transpose"], "attr": {"T": {"type": "DT_FLOAT"}, "out_type": {"type": "DT_INT32"}}}, {"name": "StatefulPartitionedCall/model/bidirectional/backward_lstm/strided_slice", "op": "StridedSlice", "input": ["StatefulPartitionedCall/model/bidirectional/backward_lstm/Shape", "StatefulPartitionedCall/model/bidirectional/backward_lstm/strided_slice/stack", "StatefulPartitionedCall/model/bidirectional/backward_lstm/strided_slice/stack_1", "StatefulPartitionedCall/model/bidirectional/backward_lstm/strided_slice/stack_2"], "attr": {"T": {"type": "DT_INT32"}, "Index": {"type": "DT_INT32"}, "shrink_axis_mask": {"i": "1"}, "ellipsis_mask": {"i": "0"}, "begin_mask": {"i": "0"}, "new_axis_mask": {"i": "0"}, "end_mask": {"i": "0"}}}, {"name": "StatefulPartitionedCall/model/bidirectional/backward_lstm/PartitionedCall/ReverseV2", "op": "ReverseV2", "input": ["StatefulPartitionedCall/model/bidirectional/backward_lstm/PartitionedCall/transpose", "StatefulPartitionedCall/model/bidirectional/backward_lstm/PartitionedCall/ReverseV2/axis"], "attr": {"Tidx": {"type": "DT_INT32"}, "T": {"type": "DT_FLOAT"}}}, {"name": "StatefulPartitionedCall/model/bidirectional/backward_lstm/PartitionedCall/Shape", "op": "Shape", "input": ["StatefulPartitionedCall/model/bidirectional/backward_lstm/PartitionedCall/transpose"], "attr": {"T": {"type": "DT_FLOAT"}, "out_type": {"type": "DT_INT32"}}}, {"name": "StatefulPartitionedCall/model/bidirectional/forward_lstm/zeros_1/packed", "op": "Pack", "input": ["StatefulPartitionedCall/model/bidirectional/forward_lstm/strided_slice", "StatefulPartitionedCall/model/bidirectional/forward_lstm/zeros_1/packed/1"], "attr": {"T": {"type": "DT_INT32"}, "axis": {"i": "0"}, "N": {"i": "2"}}}, {"name": "StatefulPartitionedCall/model/bidirectional/forward_lstm/zeros/packed", "op": "Pack", "input": ["StatefulPartitionedCall/model/bidirectional/forward_lstm/strided_slice", "StatefulPartitionedCall/model/bidirectional/forward_lstm/zeros/packed/1"], "attr": {"T": {"type": "DT_INT32"}, "axis": {"i": "0"}, "N": {"i": "2"}}}, {"name": "StatefulPartitionedCall/model/bidirectional/forward_lstm/PartitionedCall/while/enter/_116", "op": "Enter", "input": ["StatefulPartitionedCall/model/bidirectional/forward_lstm/PartitionedCall/TensorArrayUnstack/TensorListFromTensor"], "attr": {"T": {"type": "DT_VARIANT"}, "is_constant": {"b": false}, "parallel_iterations": {"i": "32"}, "frame_name": {"s": "U3RhdGVmdWxQYXJ0aXRpb25lZENhbGwvbW9kZWwvYmlkaXJlY3Rpb25hbC9mb3J3YXJkX2xzdG0vUGFydGl0aW9uZWRDYWxsL3doaWxl"}}}, {"name": "StatefulPartitionedCall/model/bidirectional/forward_lstm/PartitionedCall/strided_slice", "op": "StridedSlice", "input": ["StatefulPartitionedCall/model/bidirectional/forward_lstm/PartitionedCall/Shape", "StatefulPartitionedCall/model/bidirectional/forward_lstm/PartitionedCall/strided_slice/stack", "StatefulPartitionedCall/model/bidirectional/forward_lstm/PartitionedCall/strided_slice/stack_1", "StatefulPartitionedCall/model/bidirectional/forward_lstm/PartitionedCall/strided_slice/stack_2"], "attr": {"T": {"type": "DT_INT32"}, "Index": {"type": "DT_INT32"}, "shrink_axis_mask": {"i": "1"}, "ellipsis_mask": {"i": "0"}, "begin_mask": {"i": "0"}, "new_axis_mask": {"i": "0"}, "end_mask": {"i": "0"}}}, {"name": "StatefulPartitionedCall/model/bidirectional/backward_lstm/zeros_1/packed", "op": "Pack", "input": ["StatefulPartitionedCall/model/bidirectional/backward_lstm/strided_slice", "StatefulPartitionedCall/model/bidirectional/backward_lstm/zeros_1/packed/1"], "attr": {"T": {"type": "DT_INT32"}, "axis": {"i": "0"}, "N": {"i": "2"}}}, {"name": "StatefulPartitionedCall/model/bidirectional/backward_lstm/zeros/packed", "op": "Pack", "input": ["StatefulPartitionedCall/model/bidirectional/backward_lstm/strided_slice", "StatefulPartitionedCall/model/bidirectional/backward_lstm/zeros/packed/1"], "attr": {"T": {"type": "DT_INT32"}, "axis": {"i": "0"}, "N": {"i": "2"}}}, {"name": "StatefulPartitionedCall/model/bidirectional/backward_lstm/PartitionedCall/TensorArrayUnstack/TensorListFromTensor", "op": "TensorListFromTensor", "input": ["StatefulPartitionedCall/model/bidirectional/backward_lstm/PartitionedCall/ReverseV2", "StatefulPartitionedCall/model/bidirectional/backward_lstm/PartitionedCall/TensorArrayUnstack/TensorListFromTensor/element_shape"], "attr": {"shape_type": {"type": "DT_INT32"}, "element_dtype": {"type": "DT_FLOAT"}}}, {"name": "StatefulPartitionedCall/model/bidirectional/backward_lstm/PartitionedCall/strided_slice", "op": "StridedSlice", "input": ["StatefulPartitionedCall/model/bidirectional/backward_lstm/PartitionedCall/Shape", "StatefulPartitionedCall/model/bidirectional/backward_lstm/PartitionedCall/strided_slice/stack", "StatefulPartitionedCall/model/bidirectional/backward_lstm/PartitionedCall/strided_slice/stack_1", "StatefulPartitionedCall/model/bidirectional/backward_lstm/PartitionedCall/strided_slice/stack_2"], "attr": {"T": {"type": "DT_INT32"}, "Index": {"type": "DT_INT32"}, "shrink_axis_mask": {"i": "1"}, "ellipsis_mask": {"i": "0"}, "begin_mask": {"i": "0"}, "new_axis_mask": {"i": "0"}, "end_mask": {"i": "0"}}}, {"name": "StatefulPartitionedCall/model/bidirectional/forward_lstm/zeros_1", "op": "Fill", "input": ["StatefulPartitionedCall/model/bidirectional/forward_lstm/zeros_1/packed", "StatefulPartitionedCall/model/bidirectional/forward_lstm/zeros_1/Const"], "attr": {"T": {"type": "DT_FLOAT"}, "index_type": {"type": "DT_INT32"}}}, {"name": "StatefulPartitionedCall/model/bidirectional/forward_lstm/zeros", "op": "Fill", "input": ["StatefulPartitionedCall/model/bidirectional/forward_lstm/zeros/packed", "StatefulPartitionedCall/model/bidirectional/forward_lstm/zeros/Const"], "attr": {"T": {"type": "DT_FLOAT"}, "index_type": {"type": "DT_INT32"}}}, {"name": "StatefulPartitionedCall/model/bidirectional/forward_lstm/PartitionedCall/while/merge/_127", "op": "Merge", "input": ["StatefulPartitionedCall/model/bidirectional/forward_lstm/PartitionedCall/while/enter/_116", "StatefulPartitionedCall/model/bidirectional/forward_lstm/PartitionedCall/while/next_iteration/_163"], "attr": {"T": {"type": "DT_VARIANT"}, "N": {"i": "2"}}}, {"name": "StatefulPartitionedCall/model/bidirectional/forward_lstm/PartitionedCall/TensorArrayV2_1", "op": "TensorListReserve", "input": ["StatefulPartitionedCall/model/bidirectional/forward_lstm/PartitionedCall/TensorArrayV2_1/element_shape", "StatefulPartitionedCall/model/bidirectional/forward_lstm/PartitionedCall/strided_slice"], "attr": {"shape_type": {"type": "DT_INT32"}, "element_dtype": {"type": "DT_FLOAT"}}}, {"name": "StatefulPartitionedCall/model/bidirectional/forward_lstm/PartitionedCall/while/enter/_115", "op": "Enter", "input": ["StatefulPartitionedCall/model/bidirectional/forward_lstm/PartitionedCall/strided_slice"], "attr": {"T": {"type": "DT_INT32"}, "is_constant": {"b": false}, "parallel_iterations": {"i": "32"}, "frame_name": {"s": "U3RhdGVmdWxQYXJ0aXRpb25lZENhbGwvbW9kZWwvYmlkaXJlY3Rpb25hbC9mb3J3YXJkX2xzdG0vUGFydGl0aW9uZWRDYWxsL3doaWxl"}}}, {"name": "StatefulPartitionedCall/model/bidirectional/backward_lstm/zeros_1", "op": "Fill", "input": ["StatefulPartitionedCall/model/bidirectional/backward_lstm/zeros_1/packed", "StatefulPartitionedCall/model/bidirectional/backward_lstm/zeros_1/Const"], "attr": {"T": {"type": "DT_FLOAT"}, "index_type": {"type": "DT_INT32"}}}, {"name": "StatefulPartitionedCall/model/bidirectional/backward_lstm/zeros", "op": "Fill", "input": ["StatefulPartitionedCall/model/bidirectional/backward_lstm/zeros/packed", "StatefulPartitionedCall/model/bidirectional/backward_lstm/zeros/Const"], "attr": {"T": {"type": "DT_FLOAT"}, "index_type": {"type": "DT_INT32"}}}, {"name": "StatefulPartitionedCall/model/bidirectional/backward_lstm/PartitionedCall/while/enter/_176", "op": "Enter", "input": ["StatefulPartitionedCall/model/bidirectional/backward_lstm/PartitionedCall/TensorArrayUnstack/TensorListFromTensor"], "attr": {"T": {"type": "DT_VARIANT"}, "is_constant": {"b": false}, "parallel_iterations": {"i": "32"}, "frame_name": {"s": "U3RhdGVmdWxQYXJ0aXRpb25lZENhbGwvbW9kZWwvYmlkaXJlY3Rpb25hbC9iYWNrd2FyZF9sc3RtL1BhcnRpdGlvbmVkQ2FsbC93aGlsZQ=="}}}, {"name": "StatefulPartitionedCall/model/bidirectional/backward_lstm/PartitionedCall/TensorArrayV2_1", "op": "TensorListReserve", "input": ["StatefulPartitionedCall/model/bidirectional/backward_lstm/PartitionedCall/TensorArrayV2_1/element_shape", "StatefulPartitionedCall/model/bidirectional/backward_lstm/PartitionedCall/strided_slice"], "attr": {"shape_type": {"type": "DT_INT32"}, "element_dtype": {"type": "DT_FLOAT"}}}, {"name": "StatefulPartitionedCall/model/bidirectional/backward_lstm/PartitionedCall/while/enter/_175", "op": "Enter", "input": ["StatefulPartitionedCall/model/bidirectional/backward_lstm/PartitionedCall/strided_slice"], "attr": {"T": {"type": "DT_INT32"}, "is_constant": {"b": false}, "parallel_iterations": {"i": "32"}, "frame_name": {"s": "U3RhdGVmdWxQYXJ0aXRpb25lZENhbGwvbW9kZWwvYmlkaXJlY3Rpb25hbC9iYWNrd2FyZF9sc3RtL1BhcnRpdGlvbmVkQ2FsbC93aGlsZQ=="}}}, {"name": "StatefulPartitionedCall/model/bidirectional/forward_lstm/PartitionedCall/while/enter/_114", "op": "Enter", "input": ["StatefulPartitionedCall/model/bidirectional/forward_lstm/zeros_1"], "attr": {"T": {"type": "DT_FLOAT"}, "is_constant": {"b": false}, "parallel_iterations": {"i": "32"}, "frame_name": {"s": "U3RhdGVmdWxQYXJ0aXRpb25lZENhbGwvbW9kZWwvYmlkaXJlY3Rpb25hbC9mb3J3YXJkX2xzdG0vUGFydGl0aW9uZWRDYWxsL3doaWxl"}}}, {"name": "StatefulPartitionedCall/model/bidirectional/forward_lstm/PartitionedCall/while/enter/_113", "op": "Enter", "input": ["StatefulPartitionedCall/model/bidirectional/forward_lstm/zeros"], "attr": {"T": {"type": "DT_FLOAT"}, "is_constant": {"b": false}, "parallel_iterations": {"i": "32"}, "frame_name": {"s": "U3RhdGVmdWxQYXJ0aXRpb25lZENhbGwvbW9kZWwvYmlkaXJlY3Rpb25hbC9mb3J3YXJkX2xzdG0vUGFydGl0aW9uZWRDYWxsL3doaWxl"}}}, {"name": "StatefulPartitionedCall/model/bidirectional/forward_lstm/PartitionedCall/while/enter/_112", "op": "Enter", "input": ["StatefulPartitionedCall/model/bidirectional/forward_lstm/PartitionedCall/TensorArrayV2_1"], "attr": {"T": {"type": "DT_VARIANT"}, "is_constant": {"b": false}, "parallel_iterations": {"i": "32"}, "frame_name": {"s": "U3RhdGVmdWxQYXJ0aXRpb25lZENhbGwvbW9kZWwvYmlkaXJlY3Rpb25hbC9mb3J3YXJkX2xzdG0vUGFydGl0aW9uZWRDYWxsL3doaWxl"}}}, {"name": "StatefulPartitionedCall/model/bidirectional/forward_lstm/PartitionedCall/while/merge/_126", "op": "Merge", "input": ["StatefulPartitionedCall/model/bidirectional/forward_lstm/PartitionedCall/while/enter/_115", "StatefulPartitionedCall/model/bidirectional/forward_lstm/PartitionedCall/while/next_iteration/_162"], "attr": {"T": {"type": "DT_INT32"}, "N": {"i": "2"}}}, {"name": "StatefulPartitionedCall/model/bidirectional/backward_lstm/PartitionedCall/while/enter/_174", "op": "Enter", "input": ["StatefulPartitionedCall/model/bidirectional/backward_lstm/zeros_1"], "attr": {"T": {"type": "DT_FLOAT"}, "is_constant": {"b": false}, "parallel_iterations": {"i": "32"}, "frame_name": {"s": "U3RhdGVmdWxQYXJ0aXRpb25lZENhbGwvbW9kZWwvYmlkaXJlY3Rpb25hbC9iYWNrd2FyZF9sc3RtL1BhcnRpdGlvbmVkQ2FsbC93aGlsZQ=="}}}, {"name": "StatefulPartitionedCall/model/bidirectional/backward_lstm/PartitionedCall/while/enter/_173", "op": "Enter", "input": ["StatefulPartitionedCall/model/bidirectional/backward_lstm/zeros"], "attr": {"T": {"type": "DT_FLOAT"}, "is_constant": {"b": false}, "parallel_iterations": {"i": "32"}, "frame_name": {"s": "U3RhdGVmdWxQYXJ0aXRpb25lZENhbGwvbW9kZWwvYmlkaXJlY3Rpb25hbC9iYWNrd2FyZF9sc3RtL1BhcnRpdGlvbmVkQ2FsbC93aGlsZQ=="}}}, {"name": "StatefulPartitionedCall/model/bidirectional/backward_lstm/PartitionedCall/while/merge/_187", "op": "Merge", "input": ["StatefulPartitionedCall/model/bidirectional/backward_lstm/PartitionedCall/while/enter/_176", "StatefulPartitionedCall/model/bidirectional/backward_lstm/PartitionedCall/while/next_iteration/_223"], "attr": {"T": {"type": "DT_VARIANT"}, "N": {"i": "2"}}}, {"name": "StatefulPartitionedCall/model/bidirectional/backward_lstm/PartitionedCall/while/enter/_172", "op": "Enter", "input": ["StatefulPartitionedCall/model/bidirectional/backward_lstm/PartitionedCall/TensorArrayV2_1"], "attr": {"T": {"type": "DT_VARIANT"}, "is_constant": {"b": false}, "parallel_iterations": {"i": "32"}, "frame_name": {"s": "U3RhdGVmdWxQYXJ0aXRpb25lZENhbGwvbW9kZWwvYmlkaXJlY3Rpb25hbC9iYWNrd2FyZF9sc3RtL1BhcnRpdGlvbmVkQ2FsbC93aGlsZQ=="}}}, {"name": "StatefulPartitionedCall/model/bidirectional/backward_lstm/PartitionedCall/while/merge/_186", "op": "Merge", "input": ["StatefulPartitionedCall/model/bidirectional/backward_lstm/PartitionedCall/while/enter/_175", "StatefulPartitionedCall/model/bidirectional/backward_lstm/PartitionedCall/while/next_iteration/_222"], "attr": {"T": {"type": "DT_INT32"}, "N": {"i": "2"}}}, {"name": "StatefulPartitionedCall/model/bidirectional/forward_lstm/PartitionedCall/while/merge/_125", "op": "Merge", "input": ["StatefulPartitionedCall/model/bidirectional/forward_lstm/PartitionedCall/while/enter/_114", "StatefulPartitionedCall/model/bidirectional/forward_lstm/PartitionedCall/while/next_iteration/_161"], "attr": {"T": {"type": "DT_FLOAT"}, "N": {"i": "2"}}}, {"name": "StatefulPartitionedCall/model/bidirectional/forward_lstm/PartitionedCall/while/merge/_124", "op": "Merge", "input": ["StatefulPartitionedCall/model/bidirectional/forward_lstm/PartitionedCall/while/enter/_113", "StatefulPartitionedCall/model/bidirectional/forward_lstm/PartitionedCall/while/next_iteration/_160"], "attr": {"T": {"type": "DT_FLOAT"}, "N": {"i": "2"}}}, {"name": "StatefulPartitionedCall/model/bidirectional/forward_lstm/PartitionedCall/while/merge/_123", "op": "Merge", "input": ["StatefulPartitionedCall/model/bidirectional/forward_lstm/PartitionedCall/while/enter/_112", "StatefulPartitionedCall/model/bidirectional/forward_lstm/PartitionedCall/while/next_iteration/_159"], "attr": {"T": {"type": "DT_VARIANT"}, "N": {"i": "2"}}}, {"name": "StatefulPartitionedCall/model/bidirectional/forward_lstm/PartitionedCall/while/cond/_107/while/Less", "op": "Less", "input": ["StatefulPartitionedCall/model/bidirectional/forward_lstm/PartitionedCall/while/merge/_122", "StatefulPartitionedCall/model/bidirectional/forward_lstm/PartitionedCall/while/merge/_126", "^StatefulPartitionedCall/model/bidirectional/forward_lstm/PartitionedCall/while/merge/_120"], "attr": {"T": {"type": "DT_INT32"}}}, {"name": "StatefulPartitionedCall/model/bidirectional/backward_lstm/PartitionedCall/while/merge/_185", "op": "Merge", "input": ["StatefulPartitionedCall/model/bidirectional/backward_lstm/PartitionedCall/while/enter/_174", "StatefulPartitionedCall/model/bidirectional/backward_lstm/PartitionedCall/while/next_iteration/_221"], "attr": {"T": {"type": "DT_FLOAT"}, "N": {"i": "2"}}}, {"name": "StatefulPartitionedCall/model/bidirectional/backward_lstm/PartitionedCall/while/merge/_184", "op": "Merge", "input": ["StatefulPartitionedCall/model/bidirectional/backward_lstm/PartitionedCall/while/enter/_173", "StatefulPartitionedCall/model/bidirectional/backward_lstm/PartitionedCall/while/next_iteration/_220"], "attr": {"T": {"type": "DT_FLOAT"}, "N": {"i": "2"}}}, {"name": "StatefulPartitionedCall/model/bidirectional/backward_lstm/PartitionedCall/while/merge/_183", "op": "Merge", "input": ["StatefulPartitionedCall/model/bidirectional/backward_lstm/PartitionedCall/while/enter/_172", "StatefulPartitionedCall/model/bidirectional/backward_lstm/PartitionedCall/while/next_iteration/_219"], "attr": {"T": {"type": "DT_VARIANT"}, "N": {"i": "2"}}}, {"name": "StatefulPartitionedCall/model/bidirectional/backward_lstm/PartitionedCall/while/cond/_167/while/Less", "op": "Less", "input": ["StatefulPartitionedCall/model/bidirectional/backward_lstm/PartitionedCall/while/merge/_182", "StatefulPartitionedCall/model/bidirectional/backward_lstm/PartitionedCall/while/merge/_186", "^StatefulPartitionedCall/model/bidirectional/backward_lstm/PartitionedCall/while/merge/_180"], "attr": {"T": {"type": "DT_INT32"}}}, {"name": "StatefulPartitionedCall/model/bidirectional/forward_lstm/PartitionedCall/while/LoopCond/_131", "op": "LoopCond", "input": ["StatefulPartitionedCall/model/bidirectional/forward_lstm/PartitionedCall/while/cond/_107/while/Less"]}, {"name": "StatefulPartitionedCall/model/bidirectional/backward_lstm/PartitionedCall/while/LoopCond/_191", "op": "LoopCond", "input": ["StatefulPartitionedCall/model/bidirectional/backward_lstm/PartitionedCall/while/cond/_167/while/Less"]}, {"name": "StatefulPartitionedCall/model/bidirectional/forward_lstm/PartitionedCall/while/Func/StatefulPartitionedCall/model/bidirectional/forward_lstm/PartitionedCall/input/_43_switch/_137", "op": "Switch", "input": ["StatefulPartitionedCall/model/bidirectional/forward_lstm/PartitionedCall/while/merge/_125", "StatefulPartitionedCall/model/bidirectional/forward_lstm/PartitionedCall/while/LoopCond/_131"], "attr": {"T": {"type": "DT_FLOAT"}}}, {"name": "StatefulPartitionedCall/model/bidirectional/forward_lstm/PartitionedCall/while/StatefulPartitionedCall/model/bidirectional/forward_lstm/PartitionedCall/TensorArrayUnstack/TensorListFromTensor_switch/_139", "op": "Switch", "input": ["StatefulPartitionedCall/model/bidirectional/forward_lstm/PartitionedCall/while/merge/_127", "StatefulPartitionedCall/model/bidirectional/forward_lstm/PartitionedCall/while/LoopCond/_131"], "attr": {"T": {"type": "DT_VARIANT"}}}, {"name": "StatefulPartitionedCall/model/bidirectional/forward_lstm/PartitionedCall/while/Func/StatefulPartitionedCall/model/bidirectional/forward_lstm/PartitionedCall/input/_44_switch/_140", "op": "Switch", "input": ["StatefulPartitionedCall/model/bidirectional/forward_lstm/PartitionedCall/while/merge/_128", "StatefulPartitionedCall/model/bidirectional/forward_lstm/PartitionedCall/while/LoopCond/_131"], "attr": {"T": {"type": "DT_FLOAT"}}}, {"name": "StatefulPartitionedCall/model/bidirectional/forward_lstm/PartitionedCall/while/Func/StatefulPartitionedCall/model/bidirectional/forward_lstm/PartitionedCall/input/_42_switch/_136", "op": "Switch", "input": ["StatefulPartitionedCall/model/bidirectional/forward_lstm/PartitionedCall/while/merge/_124", "StatefulPartitionedCall/model/bidirectional/forward_lstm/PartitionedCall/while/LoopCond/_131"], "attr": {"T": {"type": "DT_FLOAT"}}}, {"name": "StatefulPartitionedCall/model/bidirectional/forward_lstm/PartitionedCall/while/Func/StatefulPartitionedCall/model/bidirectional/forward_lstm/PartitionedCall/input/_45_switch/_141", "op": "Switch", "input": ["StatefulPartitionedCall/model/bidirectional/forward_lstm/PartitionedCall/while/merge/_129", "StatefulPartitionedCall/model/bidirectional/forward_lstm/PartitionedCall/while/LoopCond/_131"], "attr": {"T": {"type": "DT_FLOAT"}}}, {"name": "StatefulPartitionedCall/model/bidirectional/forward_lstm/PartitionedCall/while/Func/StatefulPartitionedCall/model/bidirectional/forward_lstm/PartitionedCall/input/_46_switch/_142", "op": "Switch", "input": ["StatefulPartitionedCall/model/bidirectional/forward_lstm/PartitionedCall/while/merge/_130", "StatefulPartitionedCall/model/bidirectional/forward_lstm/PartitionedCall/while/LoopCond/_131"], "attr": {"T": {"type": "DT_FLOAT"}}}, {"name": "StatefulPartitionedCall/model/bidirectional/forward_lstm/PartitionedCall/while/StatefulPartitionedCall/model/bidirectional/forward_lstm/PartitionedCall/time_switch/_134", "op": "Switch", "input": ["StatefulPartitionedCall/model/bidirectional/forward_lstm/PartitionedCall/while/merge/_122", "StatefulPartitionedCall/model/bidirectional/forward_lstm/PartitionedCall/while/LoopCond/_131"], "attr": {"T": {"type": "DT_INT32"}}}, {"name": "StatefulPartitionedCall/model/bidirectional/forward_lstm/PartitionedCall/while/StatefulPartitionedCall/model/bidirectional/forward_lstm/PartitionedCall/while/loop_counter_switch/_132", "op": "Switch", "input": ["StatefulPartitionedCall/model/bidirectional/forward_lstm/PartitionedCall/while/merge/_120", "StatefulPartitionedCall/model/bidirectional/forward_lstm/PartitionedCall/while/LoopCond/_131"], "attr": {"T": {"type": "DT_INT32"}}}, {"name": "StatefulPartitionedCall/model/bidirectional/forward_lstm/PartitionedCall/while/StatefulPartitionedCall/model/bidirectional/forward_lstm/PartitionedCall/TensorArrayV2_1_switch/_135", "op": "Switch", "input": ["StatefulPartitionedCall/model/bidirectional/forward_lstm/PartitionedCall/while/merge/_123", "StatefulPartitionedCall/model/bidirectional/forward_lstm/PartitionedCall/while/LoopCond/_131"], "attr": {"T": {"type": "DT_VARIANT"}}}, {"name": "StatefulPartitionedCall/model/bidirectional/forward_lstm/PartitionedCall/while/StatefulPartitionedCall/model/bidirectional/forward_lstm/PartitionedCall/strided_slice_switch/_138", "op": "Switch", "input": ["StatefulPartitionedCall/model/bidirectional/forward_lstm/PartitionedCall/while/merge/_126", "StatefulPartitionedCall/model/bidirectional/forward_lstm/PartitionedCall/while/LoopCond/_131"], "attr": {"T": {"type": "DT_INT32"}}}, {"name": "StatefulPartitionedCall/model/bidirectional/backward_lstm/PartitionedCall/while/Func/StatefulPartitionedCall/model/bidirectional/backward_lstm/PartitionedCall/input/_54_switch/_197", "op": "Switch", "input": ["StatefulPartitionedCall/model/bidirectional/backward_lstm/PartitionedCall/while/merge/_185", "StatefulPartitionedCall/model/bidirectional/backward_lstm/PartitionedCall/while/LoopCond/_191"], "attr": {"T": {"type": "DT_FLOAT"}}}, {"name": "StatefulPartitionedCall/model/bidirectional/backward_lstm/PartitionedCall/while/StatefulPartitionedCall/model/bidirectional/backward_lstm/PartitionedCall/TensorArrayUnstack/TensorListFromTensor_switch/_199", "op": "Switch", "input": ["StatefulPartitionedCall/model/bidirectional/backward_lstm/PartitionedCall/while/merge/_187", "StatefulPartitionedCall/model/bidirectional/backward_lstm/PartitionedCall/while/LoopCond/_191"], "attr": {"T": {"type": "DT_VARIANT"}}}, {"name": "StatefulPartitionedCall/model/bidirectional/backward_lstm/PartitionedCall/while/Func/StatefulPartitionedCall/model/bidirectional/backward_lstm/PartitionedCall/input/_55_switch/_200", "op": "Switch", "input": ["StatefulPartitionedCall/model/bidirectional/backward_lstm/PartitionedCall/while/merge/_188", "StatefulPartitionedCall/model/bidirectional/backward_lstm/PartitionedCall/while/LoopCond/_191"], "attr": {"T": {"type": "DT_FLOAT"}}}, {"name": "StatefulPartitionedCall/model/bidirectional/backward_lstm/PartitionedCall/while/Func/StatefulPartitionedCall/model/bidirectional/backward_lstm/PartitionedCall/input/_53_switch/_196", "op": "Switch", "input": ["StatefulPartitionedCall/model/bidirectional/backward_lstm/PartitionedCall/while/merge/_184", "StatefulPartitionedCall/model/bidirectional/backward_lstm/PartitionedCall/while/LoopCond/_191"], "attr": {"T": {"type": "DT_FLOAT"}}}, {"name": "StatefulPartitionedCall/model/bidirectional/backward_lstm/PartitionedCall/while/Func/StatefulPartitionedCall/model/bidirectional/backward_lstm/PartitionedCall/input/_56_switch/_201", "op": "Switch", "input": ["StatefulPartitionedCall/model/bidirectional/backward_lstm/PartitionedCall/while/merge/_189", "StatefulPartitionedCall/model/bidirectional/backward_lstm/PartitionedCall/while/LoopCond/_191"], "attr": {"T": {"type": "DT_FLOAT"}}}, {"name": "StatefulPartitionedCall/model/bidirectional/backward_lstm/PartitionedCall/while/Func/StatefulPartitionedCall/model/bidirectional/backward_lstm/PartitionedCall/input/_57_switch/_202", "op": "Switch", "input": ["StatefulPartitionedCall/model/bidirectional/backward_lstm/PartitionedCall/while/merge/_190", "StatefulPartitionedCall/model/bidirectional/backward_lstm/PartitionedCall/while/LoopCond/_191"], "attr": {"T": {"type": "DT_FLOAT"}}}, {"name": "StatefulPartitionedCall/model/bidirectional/backward_lstm/PartitionedCall/while/StatefulPartitionedCall/model/bidirectional/backward_lstm/PartitionedCall/time_switch/_194", "op": "Switch", "input": ["StatefulPartitionedCall/model/bidirectional/backward_lstm/PartitionedCall/while/merge/_182", "StatefulPartitionedCall/model/bidirectional/backward_lstm/PartitionedCall/while/LoopCond/_191"], "attr": {"T": {"type": "DT_INT32"}}}, {"name": "StatefulPartitionedCall/model/bidirectional/backward_lstm/PartitionedCall/while/StatefulPartitionedCall/model/bidirectional/backward_lstm/PartitionedCall/while/loop_counter_switch/_192", "op": "Switch", "input": ["StatefulPartitionedCall/model/bidirectional/backward_lstm/PartitionedCall/while/merge/_180", "StatefulPartitionedCall/model/bidirectional/backward_lstm/PartitionedCall/while/LoopCond/_191"], "attr": {"T": {"type": "DT_INT32"}}}, {"name": "StatefulPartitionedCall/model/bidirectional/backward_lstm/PartitionedCall/while/StatefulPartitionedCall/model/bidirectional/backward_lstm/PartitionedCall/TensorArrayV2_1_switch/_195", "op": "Switch", "input": ["StatefulPartitionedCall/model/bidirectional/backward_lstm/PartitionedCall/while/merge/_183", "StatefulPartitionedCall/model/bidirectional/backward_lstm/PartitionedCall/while/LoopCond/_191"], "attr": {"T": {"type": "DT_VARIANT"}}}, {"name": "StatefulPartitionedCall/model/bidirectional/backward_lstm/PartitionedCall/while/StatefulPartitionedCall/model/bidirectional/backward_lstm/PartitionedCall/strided_slice_switch/_198", "op": "Switch", "input": ["StatefulPartitionedCall/model/bidirectional/backward_lstm/PartitionedCall/while/merge/_186", "StatefulPartitionedCall/model/bidirectional/backward_lstm/PartitionedCall/while/LoopCond/_191"], "attr": {"T": {"type": "DT_INT32"}}}, {"name": "StatefulPartitionedCall/model/bidirectional/forward_lstm/PartitionedCall/while/loop_body_control/_143", "op": "Identity", "input": ["StatefulPartitionedCall/model/bidirectional/forward_lstm/PartitionedCall/while/StatefulPartitionedCall/model/bidirectional/forward_lstm/PartitionedCall/while/loop_counter_switch/_132:1"], "attr": {"T": {"type": "DT_INT32"}}}, {"name": "StatefulPartitionedCall/model/bidirectional/forward_lstm/PartitionedCall/while/exit/_147", "op": "Exit", "input": ["StatefulPartitionedCall/model/bidirectional/forward_lstm/PartitionedCall/while/StatefulPartitionedCall/model/bidirectional/forward_lstm/PartitionedCall/TensorArrayV2_1_switch/_135"], "attr": {"T": {"type": "DT_VARIANT"}}}, {"name": "StatefulPartitionedCall/model/bidirectional/backward_lstm/PartitionedCall/while/loop_body_control/_203", "op": "Identity", "input": ["StatefulPartitionedCall/model/bidirectional/backward_lstm/PartitionedCall/while/StatefulPartitionedCall/model/bidirectional/backward_lstm/PartitionedCall/while/loop_counter_switch/_192:1"], "attr": {"T": {"type": "DT_INT32"}}}, {"name": "StatefulPartitionedCall/model/bidirectional/backward_lstm/PartitionedCall/while/exit/_207", "op": "Exit", "input": ["StatefulPartitionedCall/model/bidirectional/backward_lstm/PartitionedCall/while/StatefulPartitionedCall/model/bidirectional/backward_lstm/PartitionedCall/TensorArrayV2_1_switch/_195"], "attr": {"T": {"type": "DT_VARIANT"}}}, {"name": "StatefulPartitionedCall/model/bidirectional/forward_lstm/PartitionedCall/while/body/_108/while/split/split_dim", "op": "Const", "input": ["^StatefulPartitionedCall/model/bidirectional/forward_lstm/PartitionedCall/while/loop_body_control/_143"], "attr": {"value": {"tensor": {"dtype": "DT_INT32", "tensorShape": {}}}, "dtype": {"type": "DT_INT32"}}}, {"name": "StatefulPartitionedCall/model/bidirectional/forward_lstm/PartitionedCall/while/next_iteration/_163", "op": "NextIteration", "input": ["StatefulPartitionedCall/model/bidirectional/forward_lstm/PartitionedCall/while/StatefulPartitionedCall/model/bidirectional/forward_lstm/PartitionedCall/TensorArrayUnstack/TensorListFromTensor_switch/_139:1", "^StatefulPartitionedCall/model/bidirectional/forward_lstm/PartitionedCall/while/loop_body_control/_143"], "attr": {"T": {"type": "DT_VARIANT"}}}, {"name": "StatefulPartitionedCall/model/bidirectional/forward_lstm/PartitionedCall/while/body/_108/while/TensorArrayV2Read/TensorListGetItem/element_shape", "op": "Const", "input": ["^StatefulPartitionedCall/model/bidirectional/forward_lstm/PartitionedCall/while/loop_body_control/_143"], "attr": {"value": {"tensor": {"dtype": "DT_INT32", "tensorShape": {"dim": [{"size": "2"}]}}}, "dtype": {"type": "DT_INT32"}}}, {"name": "StatefulPartitionedCall/model/bidirectional/forward_lstm/PartitionedCall/while/next_iteration/_164", "op": "NextIteration", "input": ["StatefulPartitionedCall/model/bidirectional/forward_lstm/PartitionedCall/while/Func/StatefulPartitionedCall/model/bidirectional/forward_lstm/PartitionedCall/input/_44_switch/_140:1", "^StatefulPartitionedCall/model/bidirectional/forward_lstm/PartitionedCall/while/loop_body_control/_143"], "attr": {"T": {"type": "DT_FLOAT"}}}, {"name": "StatefulPartitionedCall/model/bidirectional/forward_lstm/PartitionedCall/while/next_iteration/_165", "op": "NextIteration", "input": ["StatefulPartitionedCall/model/bidirectional/forward_lstm/PartitionedCall/while/Func/StatefulPartitionedCall/model/bidirectional/forward_lstm/PartitionedCall/input/_45_switch/_141:1", "^StatefulPartitionedCall/model/bidirectional/forward_lstm/PartitionedCall/while/loop_body_control/_143"], "attr": {"T": {"type": "DT_FLOAT"}}}, {"name": "StatefulPartitionedCall/model/bidirectional/forward_lstm/PartitionedCall/while/body/_108/while/MatMul_1", "op": "MatMul", "input": ["StatefulPartitionedCall/model/bidirectional/forward_lstm/PartitionedCall/while/Func/StatefulPartitionedCall/model/bidirectional/forward_lstm/PartitionedCall/input/_42_switch/_136:1", "StatefulPartitionedCall/model/bidirectional/forward_lstm/PartitionedCall/while/Func/StatefulPartitionedCall/model/bidirectional/forward_lstm/PartitionedCall/input/_45_switch/_141:1", "^StatefulPartitionedCall/model/bidirectional/forward_lstm/PartitionedCall/while/loop_body_control/_143"], "device": "/device:CPU:0", "attr": {"transpose_b": {"b": false}, "T": {"type": "DT_FLOAT"}, "transpose_a": {"b": false}}}, {"name": "StatefulPartitionedCall/model/bidirectional/forward_lstm/PartitionedCall/while/next_iteration/_166", "op": "NextIteration", "input": ["StatefulPartitionedCall/model/bidirectional/forward_lstm/PartitionedCall/while/Func/StatefulPartitionedCall/model/bidirectional/forward_lstm/PartitionedCall/input/_46_switch/_142:1", "^StatefulPartitionedCall/model/bidirectional/forward_lstm/PartitionedCall/while/loop_body_control/_143"], "attr": {"T": {"type": "DT_FLOAT"}}}, {"name": "Func/StatefulPartitionedCall/model/bidirectional/forward_lstm/PartitionedCall/while/body/_108/input/_483", "op": "Identity", "input": ["StatefulPartitionedCall/model/bidirectional/forward_lstm/PartitionedCall/while/StatefulPartitionedCall/model/bidirectional/forward_lstm/PartitionedCall/time_switch/_134:1", "^StatefulPartitionedCall/model/bidirectional/forward_lstm/PartitionedCall/while/loop_body_control/_143"], "attr": {"T": {"type": "DT_INT32"}}}, {"name": "StatefulPartitionedCall/model/bidirectional/forward_lstm/PartitionedCall/while/body/_108/while/add_2/y", "op": "Const", "input": ["^StatefulPartitionedCall/model/bidirectional/forward_lstm/PartitionedCall/while/loop_body_control/_143"], "attr": {"value": {"tensor": {"dtype": "DT_INT32", "tensorShape": {}}}, "dtype": {"type": "DT_INT32"}}}, {"name": "StatefulPartitionedCall/model/bidirectional/forward_lstm/PartitionedCall/while/body/_108/while/add_3/y", "op": "Const", "input": ["^StatefulPartitionedCall/model/bidirectional/forward_lstm/PartitionedCall/while/loop_body_control/_143"], "attr": {"value": {"tensor": {"dtype": "DT_INT32", "tensorShape": {}}}, "dtype": {"type": "DT_INT32"}}}, {"name": "StatefulPartitionedCall/model/bidirectional/forward_lstm/PartitionedCall/while/next_iteration/_162", "op": "NextIteration", "input": ["StatefulPartitionedCall/model/bidirectional/forward_lstm/PartitionedCall/while/StatefulPartitionedCall/model/bidirectional/forward_lstm/PartitionedCall/strided_slice_switch/_138:1", "^StatefulPartitionedCall/model/bidirectional/forward_lstm/PartitionedCall/while/loop_body_control/_143"], "attr": {"T": {"type": "DT_INT32"}}}, {"name": "StatefulPartitionedCall/model/bidirectional/forward_lstm/PartitionedCall/TensorArrayV2Stack/TensorListStack", "op": "TensorListStack", "input": ["StatefulPartitionedCall/model/bidirectional/forward_lstm/PartitionedCall/while/exit/_147", "StatefulPartitionedCall/model/bidirectional/forward_lstm/PartitionedCall/TensorArrayV2Stack/TensorListStack/element_shape"], "attr": {"num_elements": {"i": "-1"}, "element_dtype": {"type": "DT_FLOAT"}}}, {"name": "StatefulPartitionedCall/model/bidirectional/backward_lstm/PartitionedCall/while/body/_168/while/split/split_dim", "op": "Const", "input": ["^StatefulPartitionedCall/model/bidirectional/backward_lstm/PartitionedCall/while/loop_body_control/_203"], "attr": {"value": {"tensor": {"dtype": "DT_INT32", "tensorShape": {}}}, "dtype": {"type": "DT_INT32"}}}, {"name": "StatefulPartitionedCall/model/bidirectional/backward_lstm/PartitionedCall/while/next_iteration/_223", "op": "NextIteration", "input": ["StatefulPartitionedCall/model/bidirectional/backward_lstm/PartitionedCall/while/StatefulPartitionedCall/model/bidirectional/backward_lstm/PartitionedCall/TensorArrayUnstack/TensorListFromTensor_switch/_199:1", "^StatefulPartitionedCall/model/bidirectional/backward_lstm/PartitionedCall/while/loop_body_control/_203"], "attr": {"T": {"type": "DT_VARIANT"}}}, {"name": "StatefulPartitionedCall/model/bidirectional/backward_lstm/PartitionedCall/while/body/_168/while/TensorArrayV2Read/TensorListGetItem/element_shape", "op": "Const", "input": ["^StatefulPartitionedCall/model/bidirectional/backward_lstm/PartitionedCall/while/loop_body_control/_203"], "attr": {"value": {"tensor": {"dtype": "DT_INT32", "tensorShape": {"dim": [{"size": "2"}]}}}, "dtype": {"type": "DT_INT32"}}}, {"name": "StatefulPartitionedCall/model/bidirectional/backward_lstm/PartitionedCall/while/next_iteration/_224", "op": "NextIteration", "input": ["StatefulPartitionedCall/model/bidirectional/backward_lstm/PartitionedCall/while/Func/StatefulPartitionedCall/model/bidirectional/backward_lstm/PartitionedCall/input/_55_switch/_200:1", "^StatefulPartitionedCall/model/bidirectional/backward_lstm/PartitionedCall/while/loop_body_control/_203"], "attr": {"T": {"type": "DT_FLOAT"}}}, {"name": "StatefulPartitionedCall/model/bidirectional/backward_lstm/PartitionedCall/while/next_iteration/_225", "op": "NextIteration", "input": ["StatefulPartitionedCall/model/bidirectional/backward_lstm/PartitionedCall/while/Func/StatefulPartitionedCall/model/bidirectional/backward_lstm/PartitionedCall/input/_56_switch/_201:1", "^StatefulPartitionedCall/model/bidirectional/backward_lstm/PartitionedCall/while/loop_body_control/_203"], "attr": {"T": {"type": "DT_FLOAT"}}}, {"name": "StatefulPartitionedCall/model/bidirectional/backward_lstm/PartitionedCall/while/body/_168/while/MatMul_1", "op": "MatMul", "input": ["StatefulPartitionedCall/model/bidirectional/backward_lstm/PartitionedCall/while/Func/StatefulPartitionedCall/model/bidirectional/backward_lstm/PartitionedCall/input/_53_switch/_196:1", "StatefulPartitionedCall/model/bidirectional/backward_lstm/PartitionedCall/while/Func/StatefulPartitionedCall/model/bidirectional/backward_lstm/PartitionedCall/input/_56_switch/_201:1", "^StatefulPartitionedCall/model/bidirectional/backward_lstm/PartitionedCall/while/loop_body_control/_203"], "device": "/device:CPU:0", "attr": {"transpose_b": {"b": false}, "T": {"type": "DT_FLOAT"}, "transpose_a": {"b": false}}}, {"name": "StatefulPartitionedCall/model/bidirectional/backward_lstm/PartitionedCall/while/next_iteration/_226", "op": "NextIteration", "input": ["StatefulPartitionedCall/model/bidirectional/backward_lstm/PartitionedCall/while/Func/StatefulPartitionedCall/model/bidirectional/backward_lstm/PartitionedCall/input/_57_switch/_202:1", "^StatefulPartitionedCall/model/bidirectional/backward_lstm/PartitionedCall/while/loop_body_control/_203"], "attr": {"T": {"type": "DT_FLOAT"}}}, {"name": "Func/StatefulPartitionedCall/model/bidirectional/backward_lstm/PartitionedCall/while/body/_168/input/_520", "op": "Identity", "input": ["StatefulPartitionedCall/model/bidirectional/backward_lstm/PartitionedCall/while/StatefulPartitionedCall/model/bidirectional/backward_lstm/PartitionedCall/time_switch/_194:1", "^StatefulPartitionedCall/model/bidirectional/backward_lstm/PartitionedCall/while/loop_body_control/_203"], "attr": {"T": {"type": "DT_INT32"}}}, {"name": "StatefulPartitionedCall/model/bidirectional/backward_lstm/PartitionedCall/while/body/_168/while/add_2/y", "op": "Const", "input": ["^StatefulPartitionedCall/model/bidirectional/backward_lstm/PartitionedCall/while/loop_body_control/_203"], "attr": {"value": {"tensor": {"dtype": "DT_INT32", "tensorShape": {}}}, "dtype": {"type": "DT_INT32"}}}, {"name": "StatefulPartitionedCall/model/bidirectional/backward_lstm/PartitionedCall/while/body/_168/while/add_3/y", "op": "Const", "input": ["^StatefulPartitionedCall/model/bidirectional/backward_lstm/PartitionedCall/while/loop_body_control/_203"], "attr": {"value": {"tensor": {"dtype": "DT_INT32", "tensorShape": {}}}, "dtype": {"type": "DT_INT32"}}}, {"name": "StatefulPartitionedCall/model/bidirectional/backward_lstm/PartitionedCall/while/next_iteration/_222", "op": "NextIteration", "input": ["StatefulPartitionedCall/model/bidirectional/backward_lstm/PartitionedCall/while/StatefulPartitionedCall/model/bidirectional/backward_lstm/PartitionedCall/strided_slice_switch/_198:1", "^StatefulPartitionedCall/model/bidirectional/backward_lstm/PartitionedCall/while/loop_body_control/_203"], "attr": {"T": {"type": "DT_INT32"}}}, {"name": "StatefulPartitionedCall/model/bidirectional/backward_lstm/PartitionedCall/TensorArrayV2Stack/TensorListStack", "op": "TensorListStack", "input": ["StatefulPartitionedCall/model/bidirectional/backward_lstm/PartitionedCall/while/exit/_207", "StatefulPartitionedCall/model/bidirectional/backward_lstm/PartitionedCall/TensorArrayV2Stack/TensorListStack/element_shape"], "attr": {"num_elements": {"i": "-1"}, "element_dtype": {"type": "DT_FLOAT"}}}, {"name": "StatefulPartitionedCall/model/bidirectional/forward_lstm/PartitionedCall/while/body/_108/while/TensorArrayV2Read/TensorListGetItem", "op": "TensorListGetItem", "input": ["StatefulPartitionedCall/model/bidirectional/forward_lstm/PartitionedCall/while/StatefulPartitionedCall/model/bidirectional/forward_lstm/PartitionedCall/TensorArrayUnstack/TensorListFromTensor_switch/_139:1", "Func/StatefulPartitionedCall/model/bidirectional/forward_lstm/PartitionedCall/while/body/_108/input/_483", "StatefulPartitionedCall/model/bidirectional/forward_lstm/PartitionedCall/while/body/_108/while/TensorArrayV2Read/TensorListGetItem/element_shape"], "attr": {"element_dtype": {"type": "DT_FLOAT"}}}, {"name": "StatefulPartitionedCall/model/bidirectional/forward_lstm/PartitionedCall/while/body/_108/while/add_2", "op": "AddV2", "input": ["Func/StatefulPartitionedCall/model/bidirectional/forward_lstm/PartitionedCall/while/body/_108/input/_483", "StatefulPartitionedCall/model/bidirectional/forward_lstm/PartitionedCall/while/body/_108/while/add_2/y"], "attr": {"T": {"type": "DT_INT32"}}}, {"name": "StatefulPartitionedCall/model/bidirectional/forward_lstm/PartitionedCall/while/body/_108/while/add_3", "op": "AddV2", "input": ["StatefulPartitionedCall/model/bidirectional/forward_lstm/PartitionedCall/while/StatefulPartitionedCall/model/bidirectional/forward_lstm/PartitionedCall/while/loop_counter_switch/_132:1", "StatefulPartitionedCall/model/bidirectional/forward_lstm/PartitionedCall/while/body/_108/while/add_3/y"], "attr": {"T": {"type": "DT_INT32"}}}, {"name": "StatefulPartitionedCall/model/bidirectional/forward_lstm/PartitionedCall/transpose_1", "op": "Transpose", "input": ["StatefulPartitionedCall/model/bidirectional/forward_lstm/PartitionedCall/TensorArrayV2Stack/TensorListStack", "StatefulPartitionedCall/model/bidirectional/forward_lstm/PartitionedCall/transpose_1/perm"], "attr": {"Tperm": {"type": "DT_INT32"}, "T": {"type": "DT_FLOAT"}}}, {"name": "StatefulPartitionedCall/model/bidirectional/backward_lstm/PartitionedCall/while/body/_168/while/TensorArrayV2Read/TensorListGetItem", "op": "TensorListGetItem", "input": ["StatefulPartitionedCall/model/bidirectional/backward_lstm/PartitionedCall/while/StatefulPartitionedCall/model/bidirectional/backward_lstm/PartitionedCall/TensorArrayUnstack/TensorListFromTensor_switch/_199:1", "Func/StatefulPartitionedCall/model/bidirectional/backward_lstm/PartitionedCall/while/body/_168/input/_520", "StatefulPartitionedCall/model/bidirectional/backward_lstm/PartitionedCall/while/body/_168/while/TensorArrayV2Read/TensorListGetItem/element_shape"], "attr": {"element_dtype": {"type": "DT_FLOAT"}}}, {"name": "StatefulPartitionedCall/model/bidirectional/backward_lstm/PartitionedCall/while/body/_168/while/add_2", "op": "AddV2", "input": ["Func/StatefulPartitionedCall/model/bidirectional/backward_lstm/PartitionedCall/while/body/_168/input/_520", "StatefulPartitionedCall/model/bidirectional/backward_lstm/PartitionedCall/while/body/_168/while/add_2/y"], "attr": {"T": {"type": "DT_INT32"}}}, {"name": "StatefulPartitionedCall/model/bidirectional/backward_lstm/PartitionedCall/while/body/_168/while/add_3", "op": "AddV2", "input": ["StatefulPartitionedCall/model/bidirectional/backward_lstm/PartitionedCall/while/StatefulPartitionedCall/model/bidirectional/backward_lstm/PartitionedCall/while/loop_counter_switch/_192:1", "StatefulPartitionedCall/model/bidirectional/backward_lstm/PartitionedCall/while/body/_168/while/add_3/y"], "attr": {"T": {"type": "DT_INT32"}}}, {"name": "StatefulPartitionedCall/model/bidirectional/backward_lstm/PartitionedCall/transpose_1", "op": "Transpose", "input": ["StatefulPartitionedCall/model/bidirectional/backward_lstm/PartitionedCall/TensorArrayV2Stack/TensorListStack", "StatefulPartitionedCall/model/bidirectional/backward_lstm/PartitionedCall/transpose_1/perm"], "attr": {"Tperm": {"type": "DT_INT32"}, "T": {"type": "DT_FLOAT"}}}, {"name": "StatefulPartitionedCall/model/bidirectional/forward_lstm/PartitionedCall/while/body/_108/while/MatMul", "op": "MatMul", "input": ["StatefulPartitionedCall/model/bidirectional/forward_lstm/PartitionedCall/while/body/_108/while/TensorArrayV2Read/TensorListGetItem", "StatefulPartitionedCall/model/bidirectional/forward_lstm/PartitionedCall/while/Func/StatefulPartitionedCall/model/bidirectional/forward_lstm/PartitionedCall/input/_44_switch/_140:1"], "device": "/device:CPU:0", "attr": {"transpose_b": {"b": false}, "T": {"type": "DT_FLOAT"}, "transpose_a": {"b": false}}}, {"name": "StatefulPartitionedCall/model/bidirectional/forward_lstm/PartitionedCall/while/next_iteration/_158", "op": "NextIteration", "input": ["StatefulPartitionedCall/model/bidirectional/forward_lstm/PartitionedCall/while/body/_108/while/add_2", "^StatefulPartitionedCall/model/bidirectional/forward_lstm/PartitionedCall/while/loop_body_control/_143"], "attr": {"T": {"type": "DT_INT32"}}}, {"name": "StatefulPartitionedCall/model/bidirectional/forward_lstm/PartitionedCall/while/next_iteration/_156", "op": "NextIteration", "input": ["StatefulPartitionedCall/model/bidirectional/forward_lstm/PartitionedCall/while/body/_108/while/add_3", "^StatefulPartitionedCall/model/bidirectional/forward_lstm/PartitionedCall/while/loop_body_control/_143"], "attr": {"T": {"type": "DT_INT32"}}}, {"name": "StatefulPartitionedCall/model/bidirectional/backward_lstm/PartitionedCall/while/body/_168/while/MatMul", "op": "MatMul", "input": ["StatefulPartitionedCall/model/bidirectional/backward_lstm/PartitionedCall/while/body/_168/while/TensorArrayV2Read/TensorListGetItem", "StatefulPartitionedCall/model/bidirectional/backward_lstm/PartitionedCall/while/Func/StatefulPartitionedCall/model/bidirectional/backward_lstm/PartitionedCall/input/_55_switch/_200:1"], "device": "/device:CPU:0", "attr": {"transpose_b": {"b": false}, "T": {"type": "DT_FLOAT"}, "transpose_a": {"b": false}}}, {"name": "StatefulPartitionedCall/model/bidirectional/backward_lstm/PartitionedCall/while/next_iteration/_218", "op": "NextIteration", "input": ["StatefulPartitionedCall/model/bidirectional/backward_lstm/PartitionedCall/while/body/_168/while/add_2", "^StatefulPartitionedCall/model/bidirectional/backward_lstm/PartitionedCall/while/loop_body_control/_203"], "attr": {"T": {"type": "DT_INT32"}}}, {"name": "StatefulPartitionedCall/model/bidirectional/backward_lstm/PartitionedCall/while/next_iteration/_216", "op": "NextIteration", "input": ["StatefulPartitionedCall/model/bidirectional/backward_lstm/PartitionedCall/while/body/_168/while/add_3", "^StatefulPartitionedCall/model/bidirectional/backward_lstm/PartitionedCall/while/loop_body_control/_203"], "attr": {"T": {"type": "DT_INT32"}}}, {"name": "StatefulPartitionedCall/model/bidirectional/ReverseV2", "op": "ReverseV2", "input": ["StatefulPartitionedCall/model/bidirectional/backward_lstm/PartitionedCall/transpose_1", "StatefulPartitionedCall/model/bidirectional/ReverseV2/axis"], "attr": {"Tidx": {"type": "DT_INT32"}, "T": {"type": "DT_FLOAT"}}}, {"name": "StatefulPartitionedCall/model/bidirectional/forward_lstm/PartitionedCall/while/body/_108/while/add", "op": "AddV2", "input": ["StatefulPartitionedCall/model/bidirectional/forward_lstm/PartitionedCall/while/body/_108/while/MatMul", "StatefulPartitionedCall/model/bidirectional/forward_lstm/PartitionedCall/while/body/_108/while/MatMul_1"], "attr": {"T": {"type": "DT_FLOAT"}}}, {"name": "StatefulPartitionedCall/model/bidirectional/backward_lstm/PartitionedCall/while/body/_168/while/add", "op": "AddV2", "input": ["StatefulPartitionedCall/model/bidirectional/backward_lstm/PartitionedCall/while/body/_168/while/MatMul", "StatefulPartitionedCall/model/bidirectional/backward_lstm/PartitionedCall/while/body/_168/while/MatMul_1"], "attr": {"T": {"type": "DT_FLOAT"}}}, {"name": "StatefulPartitionedCall/model/bidirectional/concat", "op": "ConcatV2", "input": ["StatefulPartitionedCall/model/bidirectional/forward_lstm/PartitionedCall/transpose_1", "StatefulPartitionedCall/model/bidirectional/ReverseV2", "StatefulPartitionedCall/model/bidirectional/concat/axis"], "attr": {"Tidx": {"type": "DT_INT32"}, "T": {"type": "DT_FLOAT"}, "N": {"i": "2"}}}, {"name": "StatefulPartitionedCall/model/bidirectional/forward_lstm/PartitionedCall/while/body/_108/while/BiasAdd", "op": "BiasAdd", "input": ["StatefulPartitionedCall/model/bidirectional/forward_lstm/PartitionedCall/while/body/_108/while/add", "StatefulPartitionedCall/model/bidirectional/forward_lstm/PartitionedCall/while/Func/StatefulPartitionedCall/model/bidirectional/forward_lstm/PartitionedCall/input/_46_switch/_142:1"], "attr": {"T": {"type": "DT_FLOAT"}, "data_format": {"s": "TkhXQw=="}}}, {"name": "StatefulPartitionedCall/model/bidirectional/backward_lstm/PartitionedCall/while/body/_168/while/BiasAdd", "op": "BiasAdd", "input": ["StatefulPartitionedCall/model/bidirectional/backward_lstm/PartitionedCall/while/body/_168/while/add", "StatefulPartitionedCall/model/bidirectional/backward_lstm/PartitionedCall/while/Func/StatefulPartitionedCall/model/bidirectional/backward_lstm/PartitionedCall/input/_57_switch/_202:1"], "attr": {"T": {"type": "DT_FLOAT"}, "data_format": {"s": "TkhXQw=="}}}, {"name": "StatefulPartitionedCall/model/bidirectional_1/forward_lstm_1/Shape", "op": "Shape", "input": ["StatefulPartitionedCall/model/bidirectional/concat"], "attr": {"T": {"type": "DT_FLOAT"}, "out_type": {"type": "DT_INT32"}}}, {"name": "StatefulPartitionedCall/model/bidirectional_1/forward_lstm_1/PartitionedCall/transpose", "op": "Transpose", "input": ["StatefulPartitionedCall/model/bidirectional/concat", "StatefulPartitionedCall/model/bidirectional_1/forward_lstm_1/PartitionedCall/transpose/perm"], "attr": {"Tperm": {"type": "DT_INT32"}, "T": {"type": "DT_FLOAT"}}}, {"name": "StatefulPartitionedCall/model/bidirectional_1/backward_lstm_1/Shape", "op": "Shape", "input": ["StatefulPartitionedCall/model/bidirectional/concat"], "attr": {"T": {"type": "DT_FLOAT"}, "out_type": {"type": "DT_INT32"}}}, {"name": "StatefulPartitionedCall/model/bidirectional_1/backward_lstm_1/PartitionedCall/transpose", "op": "Transpose", "input": ["StatefulPartitionedCall/model/bidirectional/concat", "StatefulPartitionedCall/model/bidirectional_1/backward_lstm_1/PartitionedCall/transpose/perm"], "attr": {"Tperm": {"type": "DT_INT32"}, "T": {"type": "DT_FLOAT"}}}, {"name": "StatefulPartitionedCall/model/bidirectional/forward_lstm/PartitionedCall/while/body/_108/while/split", "op": "Split", "input": ["StatefulPartitionedCall/model/bidirectional/forward_lstm/PartitionedCall/while/body/_108/while/split/split_dim", "StatefulPartitionedCall/model/bidirectional/forward_lstm/PartitionedCall/while/body/_108/while/BiasAdd"], "attr": {"T": {"type": "DT_FLOAT"}, "num_split": {"i": "4"}}}, {"name": "StatefulPartitionedCall/model/bidirectional/backward_lstm/PartitionedCall/while/body/_168/while/split", "op": "Split", "input": ["StatefulPartitionedCall/model/bidirectional/backward_lstm/PartitionedCall/while/body/_168/while/split/split_dim", "StatefulPartitionedCall/model/bidirectional/backward_lstm/PartitionedCall/while/body/_168/while/BiasAdd"], "attr": {"T": {"type": "DT_FLOAT"}, "num_split": {"i": "4"}}}, {"name": "StatefulPartitionedCall/model/bidirectional_1/forward_lstm_1/strided_slice", "op": "StridedSlice", "input": ["StatefulPartitionedCall/model/bidirectional_1/forward_lstm_1/Shape", "StatefulPartitionedCall/model/bidirectional_1/forward_lstm_1/strided_slice/stack", "StatefulPartitionedCall/model/bidirectional_1/forward_lstm_1/strided_slice/stack_1", "StatefulPartitionedCall/model/bidirectional_1/forward_lstm_1/strided_slice/stack_2"], "attr": {"T": {"type": "DT_INT32"}, "Index": {"type": "DT_INT32"}, "shrink_axis_mask": {"i": "1"}, "ellipsis_mask": {"i": "0"}, "begin_mask": {"i": "0"}, "new_axis_mask": {"i": "0"}, "end_mask": {"i": "0"}}}, {"name": "StatefulPartitionedCall/model/bidirectional_1/forward_lstm_1/PartitionedCall/TensorArrayUnstack/TensorListFromTensor", "op": "TensorListFromTensor", "input": ["StatefulPartitionedCall/model/bidirectional_1/forward_lstm_1/PartitionedCall/transpose", "StatefulPartitionedCall/model/bidirectional_1/forward_lstm_1/PartitionedCall/TensorArrayUnstack/TensorListFromTensor/element_shape"], "attr": {"shape_type": {"type": "DT_INT32"}, "element_dtype": {"type": "DT_FLOAT"}}}, {"name": "StatefulPartitionedCall/model/bidirectional_1/forward_lstm_1/PartitionedCall/Shape", "op": "Shape", "input": ["StatefulPartitionedCall/model/bidirectional_1/forward_lstm_1/PartitionedCall/transpose"], "attr": {"T": {"type": "DT_FLOAT"}, "out_type": {"type": "DT_INT32"}}}, {"name": "StatefulPartitionedCall/model/bidirectional_1/backward_lstm_1/strided_slice", "op": "StridedSlice", "input": ["StatefulPartitionedCall/model/bidirectional_1/backward_lstm_1/Shape", "StatefulPartitionedCall/model/bidirectional_1/backward_lstm_1/strided_slice/stack", "StatefulPartitionedCall/model/bidirectional_1/backward_lstm_1/strided_slice/stack_1", "StatefulPartitionedCall/model/bidirectional_1/backward_lstm_1/strided_slice/stack_2"], "attr": {"T": {"type": "DT_INT32"}, "Index": {"type": "DT_INT32"}, "shrink_axis_mask": {"i": "1"}, "ellipsis_mask": {"i": "0"}, "begin_mask": {"i": "0"}, "new_axis_mask": {"i": "0"}, "end_mask": {"i": "0"}}}, {"name": "StatefulPartitionedCall/model/bidirectional_1/backward_lstm_1/PartitionedCall/ReverseV2", "op": "ReverseV2", "input": ["StatefulPartitionedCall/model/bidirectional_1/backward_lstm_1/PartitionedCall/transpose", "StatefulPartitionedCall/model/bidirectional_1/backward_lstm_1/PartitionedCall/ReverseV2/axis"], "attr": {"Tidx": {"type": "DT_INT32"}, "T": {"type": "DT_FLOAT"}}}, {"name": "StatefulPartitionedCall/model/bidirectional_1/backward_lstm_1/PartitionedCall/Shape", "op": "Shape", "input": ["StatefulPartitionedCall/model/bidirectional_1/backward_lstm_1/PartitionedCall/transpose"], "attr": {"T": {"type": "DT_FLOAT"}, "out_type": {"type": "DT_INT32"}}}, {"name": "StatefulPartitionedCall/model/bidirectional/forward_lstm/PartitionedCall/while/body/_108/while/Sigmoid", "op": "Sigmoid", "input": ["StatefulPartitionedCall/model/bidirectional/forward_lstm/PartitionedCall/while/body/_108/while/split"], "attr": {"T": {"type": "DT_FLOAT"}}}, {"name": "StatefulPartitionedCall/model/bidirectional/forward_lstm/PartitionedCall/while/body/_108/while/Sigmoid_1", "op": "Sigmoid", "input": ["StatefulPartitionedCall/model/bidirectional/forward_lstm/PartitionedCall/while/body/_108/while/split:1"], "attr": {"T": {"type": "DT_FLOAT"}}}, {"name": "StatefulPartitionedCall/model/bidirectional/forward_lstm/PartitionedCall/while/body/_108/while/Tanh", "op": "Tanh", "input": ["StatefulPartitionedCall/model/bidirectional/forward_lstm/PartitionedCall/while/body/_108/while/split:2"], "attr": {"T": {"type": "DT_FLOAT"}}}, {"name": "StatefulPartitionedCall/model/bidirectional/forward_lstm/PartitionedCall/while/body/_108/while/Sigmoid_2", "op": "Sigmoid", "input": ["StatefulPartitionedCall/model/bidirectional/forward_lstm/PartitionedCall/while/body/_108/while/split:3"], "attr": {"T": {"type": "DT_FLOAT"}}}, {"name": "StatefulPartitionedCall/model/bidirectional/backward_lstm/PartitionedCall/while/body/_168/while/Sigmoid", "op": "Sigmoid", "input": ["StatefulPartitionedCall/model/bidirectional/backward_lstm/PartitionedCall/while/body/_168/while/split"], "attr": {"T": {"type": "DT_FLOAT"}}}, {"name": "StatefulPartitionedCall/model/bidirectional/backward_lstm/PartitionedCall/while/body/_168/while/Sigmoid_1", "op": "Sigmoid", "input": ["StatefulPartitionedCall/model/bidirectional/backward_lstm/PartitionedCall/while/body/_168/while/split:1"], "attr": {"T": {"type": "DT_FLOAT"}}}, {"name": "StatefulPartitionedCall/model/bidirectional/backward_lstm/PartitionedCall/while/body/_168/while/Tanh", "op": "Tanh", "input": ["StatefulPartitionedCall/model/bidirectional/backward_lstm/PartitionedCall/while/body/_168/while/split:2"], "attr": {"T": {"type": "DT_FLOAT"}}}, {"name": "StatefulPartitionedCall/model/bidirectional/backward_lstm/PartitionedCall/while/body/_168/while/Sigmoid_2", "op": "Sigmoid", "input": ["StatefulPartitionedCall/model/bidirectional/backward_lstm/PartitionedCall/while/body/_168/while/split:3"], "attr": {"T": {"type": "DT_FLOAT"}}}, {"name": "StatefulPartitionedCall/model/bidirectional_1/forward_lstm_1/zeros_1/packed", "op": "Pack", "input": ["StatefulPartitionedCall/model/bidirectional_1/forward_lstm_1/strided_slice", "StatefulPartitionedCall/model/bidirectional_1/forward_lstm_1/zeros_1/packed/1"], "attr": {"T": {"type": "DT_INT32"}, "axis": {"i": "0"}, "N": {"i": "2"}}}, {"name": "StatefulPartitionedCall/model/bidirectional_1/forward_lstm_1/zeros/packed", "op": "Pack", "input": ["StatefulPartitionedCall/model/bidirectional_1/forward_lstm_1/strided_slice", "StatefulPartitionedCall/model/bidirectional_1/forward_lstm_1/zeros/packed/1"], "attr": {"T": {"type": "DT_INT32"}, "axis": {"i": "0"}, "N": {"i": "2"}}}, {"name": "StatefulPartitionedCall/model/bidirectional_1/forward_lstm_1/PartitionedCall/while/enter/_236", "op": "Enter", "input": ["StatefulPartitionedCall/model/bidirectional_1/forward_lstm_1/PartitionedCall/TensorArrayUnstack/TensorListFromTensor"], "attr": {"T": {"type": "DT_VARIANT"}, "is_constant": {"b": false}, "parallel_iterations": {"i": "32"}, "frame_name": {"s": "U3RhdGVmdWxQYXJ0aXRpb25lZENhbGwvbW9kZWwvYmlkaXJlY3Rpb25hbF8xL2ZvcndhcmRfbHN0bV8xL1BhcnRpdGlvbmVkQ2FsbC93aGlsZQ=="}}}, {"name": "StatefulPartitionedCall/model/bidirectional_1/forward_lstm_1/PartitionedCall/strided_slice", "op": "StridedSlice", "input": ["StatefulPartitionedCall/model/bidirectional_1/forward_lstm_1/PartitionedCall/Shape", "StatefulPartitionedCall/model/bidirectional_1/forward_lstm_1/PartitionedCall/strided_slice/stack", "StatefulPartitionedCall/model/bidirectional_1/forward_lstm_1/PartitionedCall/strided_slice/stack_1", "StatefulPartitionedCall/model/bidirectional_1/forward_lstm_1/PartitionedCall/strided_slice/stack_2"], "attr": {"T": {"type": "DT_INT32"}, "Index": {"type": "DT_INT32"}, "shrink_axis_mask": {"i": "1"}, "ellipsis_mask": {"i": "0"}, "begin_mask": {"i": "0"}, "new_axis_mask": {"i": "0"}, "end_mask": {"i": "0"}}}, {"name": "StatefulPartitionedCall/model/bidirectional_1/backward_lstm_1/zeros_1/packed", "op": "Pack", "input": ["StatefulPartitionedCall/model/bidirectional_1/backward_lstm_1/strided_slice", "StatefulPartitionedCall/model/bidirectional_1/backward_lstm_1/zeros_1/packed/1"], "attr": {"T": {"type": "DT_INT32"}, "axis": {"i": "0"}, "N": {"i": "2"}}}, {"name": "StatefulPartitionedCall/model/bidirectional_1/backward_lstm_1/zeros/packed", "op": "Pack", "input": ["StatefulPartitionedCall/model/bidirectional_1/backward_lstm_1/strided_slice", "StatefulPartitionedCall/model/bidirectional_1/backward_lstm_1/zeros/packed/1"], "attr": {"T": {"type": "DT_INT32"}, "axis": {"i": "0"}, "N": {"i": "2"}}}, {"name": "StatefulPartitionedCall/model/bidirectional_1/backward_lstm_1/PartitionedCall/TensorArrayUnstack/TensorListFromTensor", "op": "TensorListFromTensor", "input": ["StatefulPartitionedCall/model/bidirectional_1/backward_lstm_1/PartitionedCall/ReverseV2", "StatefulPartitionedCall/model/bidirectional_1/backward_lstm_1/PartitionedCall/TensorArrayUnstack/TensorListFromTensor/element_shape"], "attr": {"shape_type": {"type": "DT_INT32"}, "element_dtype": {"type": "DT_FLOAT"}}}, {"name": "StatefulPartitionedCall/model/bidirectional_1/backward_lstm_1/PartitionedCall/strided_slice", "op": "StridedSlice", "input": ["StatefulPartitionedCall/model/bidirectional_1/backward_lstm_1/PartitionedCall/Shape", "StatefulPartitionedCall/model/bidirectional_1/backward_lstm_1/PartitionedCall/strided_slice/stack", "StatefulPartitionedCall/model/bidirectional_1/backward_lstm_1/PartitionedCall/strided_slice/stack_1", "StatefulPartitionedCall/model/bidirectional_1/backward_lstm_1/PartitionedCall/strided_slice/stack_2"], "attr": {"T": {"type": "DT_INT32"}, "Index": {"type": "DT_INT32"}, "shrink_axis_mask": {"i": "1"}, "ellipsis_mask": {"i": "0"}, "begin_mask": {"i": "0"}, "new_axis_mask": {"i": "0"}, "end_mask": {"i": "0"}}}, {"name": "StatefulPartitionedCall/model/bidirectional/forward_lstm/PartitionedCall/while/body/_108/while/mul", "op": "Mul", "input": ["StatefulPartitionedCall/model/bidirectional/forward_lstm/PartitionedCall/while/body/_108/while/Sigmoid_1", "StatefulPartitionedCall/model/bidirectional/forward_lstm/PartitionedCall/while/Func/StatefulPartitionedCall/model/bidirectional/forward_lstm/PartitionedCall/input/_43_switch/_137:1"], "attr": {"T": {"type": "DT_FLOAT"}}}, {"name": "StatefulPartitionedCall/model/bidirectional/forward_lstm/PartitionedCall/while/body/_108/while/mul_1", "op": "Mul", "input": ["StatefulPartitionedCall/model/bidirectional/forward_lstm/PartitionedCall/while/body/_108/while/Sigmoid", "StatefulPartitionedCall/model/bidirectional/forward_lstm/PartitionedCall/while/body/_108/while/Tanh"], "attr": {"T": {"type": "DT_FLOAT"}}}, {"name": "StatefulPartitionedCall/model/bidirectional/backward_lstm/PartitionedCall/while/body/_168/while/mul", "op": "Mul", "input": ["StatefulPartitionedCall/model/bidirectional/backward_lstm/PartitionedCall/while/body/_168/while/Sigmoid_1", "StatefulPartitionedCall/model/bidirectional/backward_lstm/PartitionedCall/while/Func/StatefulPartitionedCall/model/bidirectional/backward_lstm/PartitionedCall/input/_54_switch/_197:1"], "attr": {"T": {"type": "DT_FLOAT"}}}, {"name": "StatefulPartitionedCall/model/bidirectional/backward_lstm/PartitionedCall/while/body/_168/while/mul_1", "op": "Mul", "input": ["StatefulPartitionedCall/model/bidirectional/backward_lstm/PartitionedCall/while/body/_168/while/Sigmoid", "StatefulPartitionedCall/model/bidirectional/backward_lstm/PartitionedCall/while/body/_168/while/Tanh"], "attr": {"T": {"type": "DT_FLOAT"}}}, {"name": "StatefulPartitionedCall/model/bidirectional_1/forward_lstm_1/zeros_1", "op": "Fill", "input": ["StatefulPartitionedCall/model/bidirectional_1/forward_lstm_1/zeros_1/packed", "StatefulPartitionedCall/model/bidirectional_1/forward_lstm_1/zeros_1/Const"], "attr": {"T": {"type": "DT_FLOAT"}, "index_type": {"type": "DT_INT32"}}}, {"name": "StatefulPartitionedCall/model/bidirectional_1/forward_lstm_1/zeros", "op": "Fill", "input": ["StatefulPartitionedCall/model/bidirectional_1/forward_lstm_1/zeros/packed", "StatefulPartitionedCall/model/bidirectional_1/forward_lstm_1/zeros/Const"], "attr": {"T": {"type": "DT_FLOAT"}, "index_type": {"type": "DT_INT32"}}}, {"name": "StatefulPartitionedCall/model/bidirectional_1/forward_lstm_1/PartitionedCall/while/merge/_247", "op": "Merge", "input": ["StatefulPartitionedCall/model/bidirectional_1/forward_lstm_1/PartitionedCall/while/enter/_236", "StatefulPartitionedCall/model/bidirectional_1/forward_lstm_1/PartitionedCall/while/next_iteration/_283"], "attr": {"T": {"type": "DT_VARIANT"}, "N": {"i": "2"}}}, {"name": "StatefulPartitionedCall/model/bidirectional_1/forward_lstm_1/PartitionedCall/TensorArrayV2_1", "op": "TensorListReserve", "input": ["StatefulPartitionedCall/model/bidirectional_1/forward_lstm_1/PartitionedCall/TensorArrayV2_1/element_shape", "StatefulPartitionedCall/model/bidirectional_1/forward_lstm_1/PartitionedCall/strided_slice"], "attr": {"shape_type": {"type": "DT_INT32"}, "element_dtype": {"type": "DT_FLOAT"}}}, {"name": "StatefulPartitionedCall/model/bidirectional_1/forward_lstm_1/PartitionedCall/while/enter/_235", "op": "Enter", "input": ["StatefulPartitionedCall/model/bidirectional_1/forward_lstm_1/PartitionedCall/strided_slice"], "attr": {"T": {"type": "DT_INT32"}, "is_constant": {"b": false}, "parallel_iterations": {"i": "32"}, "frame_name": {"s": "U3RhdGVmdWxQYXJ0aXRpb25lZENhbGwvbW9kZWwvYmlkaXJlY3Rpb25hbF8xL2ZvcndhcmRfbHN0bV8xL1BhcnRpdGlvbmVkQ2FsbC93aGlsZQ=="}}}, {"name": "StatefulPartitionedCall/model/bidirectional_1/backward_lstm_1/zeros_1", "op": "Fill", "input": ["StatefulPartitionedCall/model/bidirectional_1/backward_lstm_1/zeros_1/packed", "StatefulPartitionedCall/model/bidirectional_1/backward_lstm_1/zeros_1/Const"], "attr": {"T": {"type": "DT_FLOAT"}, "index_type": {"type": "DT_INT32"}}}, {"name": "StatefulPartitionedCall/model/bidirectional_1/backward_lstm_1/zeros", "op": "Fill", "input": ["StatefulPartitionedCall/model/bidirectional_1/backward_lstm_1/zeros/packed", "StatefulPartitionedCall/model/bidirectional_1/backward_lstm_1/zeros/Const"], "attr": {"T": {"type": "DT_FLOAT"}, "index_type": {"type": "DT_INT32"}}}, {"name": "StatefulPartitionedCall/model/bidirectional_1/backward_lstm_1/PartitionedCall/while/enter/_296", "op": "Enter", "input": ["StatefulPartitionedCall/model/bidirectional_1/backward_lstm_1/PartitionedCall/TensorArrayUnstack/TensorListFromTensor"], "attr": {"T": {"type": "DT_VARIANT"}, "is_constant": {"b": false}, "parallel_iterations": {"i": "32"}, "frame_name": {"s": "U3RhdGVmdWxQYXJ0aXRpb25lZENhbGwvbW9kZWwvYmlkaXJlY3Rpb25hbF8xL2JhY2t3YXJkX2xzdG1fMS9QYXJ0aXRpb25lZENhbGwvd2hpbGU="}}}, {"name": "StatefulPartitionedCall/model/bidirectional_1/backward_lstm_1/PartitionedCall/TensorArrayV2_1", "op": "TensorListReserve", "input": ["StatefulPartitionedCall/model/bidirectional_1/backward_lstm_1/PartitionedCall/TensorArrayV2_1/element_shape", "StatefulPartitionedCall/model/bidirectional_1/backward_lstm_1/PartitionedCall/strided_slice"], "attr": {"shape_type": {"type": "DT_INT32"}, "element_dtype": {"type": "DT_FLOAT"}}}, {"name": "StatefulPartitionedCall/model/bidirectional_1/backward_lstm_1/PartitionedCall/while/enter/_295", "op": "Enter", "input": ["StatefulPartitionedCall/model/bidirectional_1/backward_lstm_1/PartitionedCall/strided_slice"], "attr": {"T": {"type": "DT_INT32"}, "is_constant": {"b": false}, "parallel_iterations": {"i": "32"}, "frame_name": {"s": "U3RhdGVmdWxQYXJ0aXRpb25lZENhbGwvbW9kZWwvYmlkaXJlY3Rpb25hbF8xL2JhY2t3YXJkX2xzdG1fMS9QYXJ0aXRpb25lZENhbGwvd2hpbGU="}}}, {"name": "StatefulPartitionedCall/model/bidirectional/forward_lstm/PartitionedCall/while/body/_108/while/add_1", "op": "AddV2", "input": ["StatefulPartitionedCall/model/bidirectional/forward_lstm/PartitionedCall/while/body/_108/while/mul", "StatefulPartitionedCall/model/bidirectional/forward_lstm/PartitionedCall/while/body/_108/while/mul_1"], "attr": {"T": {"type": "DT_FLOAT"}}}, {"name": "StatefulPartitionedCall/model/bidirectional/backward_lstm/PartitionedCall/while/body/_168/while/add_1", "op": "AddV2", "input": ["StatefulPartitionedCall/model/bidirectional/backward_lstm/PartitionedCall/while/body/_168/while/mul", "StatefulPartitionedCall/model/bidirectional/backward_lstm/PartitionedCall/while/body/_168/while/mul_1"], "attr": {"T": {"type": "DT_FLOAT"}}}, {"name": "StatefulPartitionedCall/model/bidirectional_1/forward_lstm_1/PartitionedCall/while/enter/_234", "op": "Enter", "input": ["StatefulPartitionedCall/model/bidirectional_1/forward_lstm_1/zeros_1"], "attr": {"T": {"type": "DT_FLOAT"}, "is_constant": {"b": false}, "parallel_iterations": {"i": "32"}, "frame_name": {"s": "U3RhdGVmdWxQYXJ0aXRpb25lZENhbGwvbW9kZWwvYmlkaXJlY3Rpb25hbF8xL2ZvcndhcmRfbHN0bV8xL1BhcnRpdGlvbmVkQ2FsbC93aGlsZQ=="}}}, {"name": "StatefulPartitionedCall/model/bidirectional_1/forward_lstm_1/PartitionedCall/while/enter/_233", "op": "Enter", "input": ["StatefulPartitionedCall/model/bidirectional_1/forward_lstm_1/zeros"], "attr": {"T": {"type": "DT_FLOAT"}, "is_constant": {"b": false}, "parallel_iterations": {"i": "32"}, "frame_name": {"s": "U3RhdGVmdWxQYXJ0aXRpb25lZENhbGwvbW9kZWwvYmlkaXJlY3Rpb25hbF8xL2ZvcndhcmRfbHN0bV8xL1BhcnRpdGlvbmVkQ2FsbC93aGlsZQ=="}}}, {"name": "StatefulPartitionedCall/model/bidirectional_1/forward_lstm_1/PartitionedCall/while/enter/_232", "op": "Enter", "input": ["StatefulPartitionedCall/model/bidirectional_1/forward_lstm_1/PartitionedCall/TensorArrayV2_1"], "attr": {"T": {"type": "DT_VARIANT"}, "is_constant": {"b": false}, "parallel_iterations": {"i": "32"}, "frame_name": {"s": "U3RhdGVmdWxQYXJ0aXRpb25lZENhbGwvbW9kZWwvYmlkaXJlY3Rpb25hbF8xL2ZvcndhcmRfbHN0bV8xL1BhcnRpdGlvbmVkQ2FsbC93aGlsZQ=="}}}, {"name": "StatefulPartitionedCall/model/bidirectional_1/forward_lstm_1/PartitionedCall/while/merge/_246", "op": "Merge", "input": ["StatefulPartitionedCall/model/bidirectional_1/forward_lstm_1/PartitionedCall/while/enter/_235", "StatefulPartitionedCall/model/bidirectional_1/forward_lstm_1/PartitionedCall/while/next_iteration/_282"], "attr": {"T": {"type": "DT_INT32"}, "N": {"i": "2"}}}, {"name": "StatefulPartitionedCall/model/bidirectional_1/backward_lstm_1/PartitionedCall/while/enter/_294", "op": "Enter", "input": ["StatefulPartitionedCall/model/bidirectional_1/backward_lstm_1/zeros_1"], "attr": {"T": {"type": "DT_FLOAT"}, "is_constant": {"b": false}, "parallel_iterations": {"i": "32"}, "frame_name": {"s": "U3RhdGVmdWxQYXJ0aXRpb25lZENhbGwvbW9kZWwvYmlkaXJlY3Rpb25hbF8xL2JhY2t3YXJkX2xzdG1fMS9QYXJ0aXRpb25lZENhbGwvd2hpbGU="}}}, {"name": "StatefulPartitionedCall/model/bidirectional_1/backward_lstm_1/PartitionedCall/while/enter/_293", "op": "Enter", "input": ["StatefulPartitionedCall/model/bidirectional_1/backward_lstm_1/zeros"], "attr": {"T": {"type": "DT_FLOAT"}, "is_constant": {"b": false}, "parallel_iterations": {"i": "32"}, "frame_name": {"s": "U3RhdGVmdWxQYXJ0aXRpb25lZENhbGwvbW9kZWwvYmlkaXJlY3Rpb25hbF8xL2JhY2t3YXJkX2xzdG1fMS9QYXJ0aXRpb25lZENhbGwvd2hpbGU="}}}, {"name": "StatefulPartitionedCall/model/bidirectional_1/backward_lstm_1/PartitionedCall/while/merge/_307", "op": "Merge", "input": ["StatefulPartitionedCall/model/bidirectional_1/backward_lstm_1/PartitionedCall/while/enter/_296", "StatefulPartitionedCall/model/bidirectional_1/backward_lstm_1/PartitionedCall/while/next_iteration/_343"], "attr": {"T": {"type": "DT_VARIANT"}, "N": {"i": "2"}}}, {"name": "StatefulPartitionedCall/model/bidirectional_1/backward_lstm_1/PartitionedCall/while/enter/_292", "op": "Enter", "input": ["StatefulPartitionedCall/model/bidirectional_1/backward_lstm_1/PartitionedCall/TensorArrayV2_1"], "attr": {"T": {"type": "DT_VARIANT"}, "is_constant": {"b": false}, "parallel_iterations": {"i": "32"}, "frame_name": {"s": "U3RhdGVmdWxQYXJ0aXRpb25lZENhbGwvbW9kZWwvYmlkaXJlY3Rpb25hbF8xL2JhY2t3YXJkX2xzdG1fMS9QYXJ0aXRpb25lZENhbGwvd2hpbGU="}}}, {"name": "StatefulPartitionedCall/model/bidirectional_1/backward_lstm_1/PartitionedCall/while/merge/_306", "op": "Merge", "input": ["StatefulPartitionedCall/model/bidirectional_1/backward_lstm_1/PartitionedCall/while/enter/_295", "StatefulPartitionedCall/model/bidirectional_1/backward_lstm_1/PartitionedCall/while/next_iteration/_342"], "attr": {"T": {"type": "DT_INT32"}, "N": {"i": "2"}}}, {"name": "StatefulPartitionedCall/model/bidirectional/forward_lstm/PartitionedCall/while/body/_108/while/Tanh_1", "op": "Tanh", "input": ["StatefulPartitionedCall/model/bidirectional/forward_lstm/PartitionedCall/while/body/_108/while/add_1"], "attr": {"T": {"type": "DT_FLOAT"}}}, {"name": "StatefulPartitionedCall/model/bidirectional/forward_lstm/PartitionedCall/while/next_iteration/_161", "op": "NextIteration", "input": ["StatefulPartitionedCall/model/bidirectional/forward_lstm/PartitionedCall/while/body/_108/while/add_1", "^StatefulPartitionedCall/model/bidirectional/forward_lstm/PartitionedCall/while/loop_body_control/_143"], "attr": {"T": {"type": "DT_FLOAT"}}}, {"name": "StatefulPartitionedCall/model/bidirectional/backward_lstm/PartitionedCall/while/body/_168/while/Tanh_1", "op": "Tanh", "input": ["StatefulPartitionedCall/model/bidirectional/backward_lstm/PartitionedCall/while/body/_168/while/add_1"], "attr": {"T": {"type": "DT_FLOAT"}}}, {"name": "StatefulPartitionedCall/model/bidirectional/backward_lstm/PartitionedCall/while/next_iteration/_221", "op": "NextIteration", "input": ["StatefulPartitionedCall/model/bidirectional/backward_lstm/PartitionedCall/while/body/_168/while/add_1", "^StatefulPartitionedCall/model/bidirectional/backward_lstm/PartitionedCall/while/loop_body_control/_203"], "attr": {"T": {"type": "DT_FLOAT"}}}, {"name": "StatefulPartitionedCall/model/bidirectional_1/forward_lstm_1/PartitionedCall/while/merge/_245", "op": "Merge", "input": ["StatefulPartitionedCall/model/bidirectional_1/forward_lstm_1/PartitionedCall/while/enter/_234", "StatefulPartitionedCall/model/bidirectional_1/forward_lstm_1/PartitionedCall/while/next_iteration/_281"], "attr": {"T": {"type": "DT_FLOAT"}, "N": {"i": "2"}}}, {"name": "StatefulPartitionedCall/model/bidirectional_1/forward_lstm_1/PartitionedCall/while/merge/_244", "op": "Merge", "input": ["StatefulPartitionedCall/model/bidirectional_1/forward_lstm_1/PartitionedCall/while/enter/_233", "StatefulPartitionedCall/model/bidirectional_1/forward_lstm_1/PartitionedCall/while/next_iteration/_280"], "attr": {"T": {"type": "DT_FLOAT"}, "N": {"i": "2"}}}, {"name": "StatefulPartitionedCall/model/bidirectional_1/forward_lstm_1/PartitionedCall/while/merge/_243", "op": "Merge", "input": ["StatefulPartitionedCall/model/bidirectional_1/forward_lstm_1/PartitionedCall/while/enter/_232", "StatefulPartitionedCall/model/bidirectional_1/forward_lstm_1/PartitionedCall/while/next_iteration/_279"], "attr": {"T": {"type": "DT_VARIANT"}, "N": {"i": "2"}}}, {"name": "StatefulPartitionedCall/model/bidirectional_1/forward_lstm_1/PartitionedCall/while/cond/_227/while/Less", "op": "Less", "input": ["StatefulPartitionedCall/model/bidirectional_1/forward_lstm_1/PartitionedCall/while/merge/_242", "StatefulPartitionedCall/model/bidirectional_1/forward_lstm_1/PartitionedCall/while/merge/_246", "^StatefulPartitionedCall/model/bidirectional_1/forward_lstm_1/PartitionedCall/while/merge/_240"], "attr": {"T": {"type": "DT_INT32"}}}, {"name": "StatefulPartitionedCall/model/bidirectional_1/backward_lstm_1/PartitionedCall/while/merge/_305", "op": "Merge", "input": ["StatefulPartitionedCall/model/bidirectional_1/backward_lstm_1/PartitionedCall/while/enter/_294", "StatefulPartitionedCall/model/bidirectional_1/backward_lstm_1/PartitionedCall/while/next_iteration/_341"], "attr": {"T": {"type": "DT_FLOAT"}, "N": {"i": "2"}}}, {"name": "StatefulPartitionedCall/model/bidirectional_1/backward_lstm_1/PartitionedCall/while/merge/_304", "op": "Merge", "input": ["StatefulPartitionedCall/model/bidirectional_1/backward_lstm_1/PartitionedCall/while/enter/_293", "StatefulPartitionedCall/model/bidirectional_1/backward_lstm_1/PartitionedCall/while/next_iteration/_340"], "attr": {"T": {"type": "DT_FLOAT"}, "N": {"i": "2"}}}, {"name": "StatefulPartitionedCall/model/bidirectional_1/backward_lstm_1/PartitionedCall/while/merge/_303", "op": "Merge", "input": ["StatefulPartitionedCall/model/bidirectional_1/backward_lstm_1/PartitionedCall/while/enter/_292", "StatefulPartitionedCall/model/bidirectional_1/backward_lstm_1/PartitionedCall/while/next_iteration/_339"], "attr": {"T": {"type": "DT_VARIANT"}, "N": {"i": "2"}}}, {"name": "StatefulPartitionedCall/model/bidirectional_1/backward_lstm_1/PartitionedCall/while/cond/_287/while/Less", "op": "Less", "input": ["StatefulPartitionedCall/model/bidirectional_1/backward_lstm_1/PartitionedCall/while/merge/_302", "StatefulPartitionedCall/model/bidirectional_1/backward_lstm_1/PartitionedCall/while/merge/_306", "^StatefulPartitionedCall/model/bidirectional_1/backward_lstm_1/PartitionedCall/while/merge/_300"], "attr": {"T": {"type": "DT_INT32"}}}, {"name": "StatefulPartitionedCall/model/bidirectional/forward_lstm/PartitionedCall/while/body/_108/while/mul_2", "op": "Mul", "input": ["StatefulPartitionedCall/model/bidirectional/forward_lstm/PartitionedCall/while/body/_108/while/Sigmoid_2", "StatefulPartitionedCall/model/bidirectional/forward_lstm/PartitionedCall/while/body/_108/while/Tanh_1"], "attr": {"T": {"type": "DT_FLOAT"}}}, {"name": "StatefulPartitionedCall/model/bidirectional/backward_lstm/PartitionedCall/while/body/_168/while/mul_2", "op": "Mul", "input": ["StatefulPartitionedCall/model/bidirectional/backward_lstm/PartitionedCall/while/body/_168/while/Sigmoid_2", "StatefulPartitionedCall/model/bidirectional/backward_lstm/PartitionedCall/while/body/_168/while/Tanh_1"], "attr": {"T": {"type": "DT_FLOAT"}}}, {"name": "StatefulPartitionedCall/model/bidirectional_1/forward_lstm_1/PartitionedCall/while/LoopCond/_251", "op": "LoopCond", "input": ["StatefulPartitionedCall/model/bidirectional_1/forward_lstm_1/PartitionedCall/while/cond/_227/while/Less"]}, {"name": "StatefulPartitionedCall/model/bidirectional_1/backward_lstm_1/PartitionedCall/while/LoopCond/_311", "op": "LoopCond", "input": ["StatefulPartitionedCall/model/bidirectional_1/backward_lstm_1/PartitionedCall/while/cond/_287/while/Less"]}, {"name": "StatefulPartitionedCall/model/bidirectional/forward_lstm/PartitionedCall/while/next_iteration/_160", "op": "NextIteration", "input": ["StatefulPartitionedCall/model/bidirectional/forward_lstm/PartitionedCall/while/body/_108/while/mul_2", "^StatefulPartitionedCall/model/bidirectional/forward_lstm/PartitionedCall/while/loop_body_control/_143"], "attr": {"T": {"type": "DT_FLOAT"}}}, {"name": "StatefulPartitionedCall/model/bidirectional/forward_lstm/PartitionedCall/while/body/_108/while/TensorArrayV2Write/TensorListSetItem", "op": "TensorListSetItem", "input": ["StatefulPartitionedCall/model/bidirectional/forward_lstm/PartitionedCall/while/StatefulPartitionedCall/model/bidirectional/forward_lstm/PartitionedCall/TensorArrayV2_1_switch/_135:1", "Func/StatefulPartitionedCall/model/bidirectional/forward_lstm/PartitionedCall/while/body/_108/input/_483", "StatefulPartitionedCall/model/bidirectional/forward_lstm/PartitionedCall/while/body/_108/while/mul_2"], "attr": {"element_dtype": {"type": "DT_FLOAT"}}}, {"name": "StatefulPartitionedCall/model/bidirectional/backward_lstm/PartitionedCall/while/next_iteration/_220", "op": "NextIteration", "input": ["StatefulPartitionedCall/model/bidirectional/backward_lstm/PartitionedCall/while/body/_168/while/mul_2", "^StatefulPartitionedCall/model/bidirectional/backward_lstm/PartitionedCall/while/loop_body_control/_203"], "attr": {"T": {"type": "DT_FLOAT"}}}, {"name": "StatefulPartitionedCall/model/bidirectional/backward_lstm/PartitionedCall/while/body/_168/while/TensorArrayV2Write/TensorListSetItem", "op": "TensorListSetItem", "input": ["StatefulPartitionedCall/model/bidirectional/backward_lstm/PartitionedCall/while/StatefulPartitionedCall/model/bidirectional/backward_lstm/PartitionedCall/TensorArrayV2_1_switch/_195:1", "Func/StatefulPartitionedCall/model/bidirectional/backward_lstm/PartitionedCall/while/body/_168/input/_520", "StatefulPartitionedCall/model/bidirectional/backward_lstm/PartitionedCall/while/body/_168/while/mul_2"], "attr": {"element_dtype": {"type": "DT_FLOAT"}}}, {"name": "StatefulPartitionedCall/model/bidirectional_1/forward_lstm_1/PartitionedCall/while/Func/StatefulPartitionedCall/model/bidirectional_1/forward_lstm_1/PartitionedCall/input/_65_switch/_257", "op": "Switch", "input": ["StatefulPartitionedCall/model/bidirectional_1/forward_lstm_1/PartitionedCall/while/merge/_245", "StatefulPartitionedCall/model/bidirectional_1/forward_lstm_1/PartitionedCall/while/LoopCond/_251"], "attr": {"T": {"type": "DT_FLOAT"}}}, {"name": "StatefulPartitionedCall/model/bidirectional_1/forward_lstm_1/PartitionedCall/while/StatefulPartitionedCall/model/bidirectional_1/forward_lstm_1/PartitionedCall/TensorArrayUnstack/TensorListFromTensor_switch/_259", "op": "Switch", "input": ["StatefulPartitionedCall/model/bidirectional_1/forward_lstm_1/PartitionedCall/while/merge/_247", "StatefulPartitionedCall/model/bidirectional_1/forward_lstm_1/PartitionedCall/while/LoopCond/_251"], "attr": {"T": {"type": "DT_VARIANT"}}}, {"name": "StatefulPartitionedCall/model/bidirectional_1/forward_lstm_1/PartitionedCall/while/Func/StatefulPartitionedCall/model/bidirectional_1/forward_lstm_1/PartitionedCall/input/_66_switch/_260", "op": "Switch", "input": ["StatefulPartitionedCall/model/bidirectional_1/forward_lstm_1/PartitionedCall/while/merge/_248", "StatefulPartitionedCall/model/bidirectional_1/forward_lstm_1/PartitionedCall/while/LoopCond/_251"], "attr": {"T": {"type": "DT_FLOAT"}}}, {"name": "StatefulPartitionedCall/model/bidirectional_1/forward_lstm_1/PartitionedCall/while/Func/StatefulPartitionedCall/model/bidirectional_1/forward_lstm_1/PartitionedCall/input/_64_switch/_256", "op": "Switch", "input": ["StatefulPartitionedCall/model/bidirectional_1/forward_lstm_1/PartitionedCall/while/merge/_244", "StatefulPartitionedCall/model/bidirectional_1/forward_lstm_1/PartitionedCall/while/LoopCond/_251"], "attr": {"T": {"type": "DT_FLOAT"}}}, {"name": "StatefulPartitionedCall/model/bidirectional_1/forward_lstm_1/PartitionedCall/while/Func/StatefulPartitionedCall/model/bidirectional_1/forward_lstm_1/PartitionedCall/input/_67_switch/_261", "op": "Switch", "input": ["StatefulPartitionedCall/model/bidirectional_1/forward_lstm_1/PartitionedCall/while/merge/_249", "StatefulPartitionedCall/model/bidirectional_1/forward_lstm_1/PartitionedCall/while/LoopCond/_251"], "attr": {"T": {"type": "DT_FLOAT"}}}, {"name": "StatefulPartitionedCall/model/bidirectional_1/forward_lstm_1/PartitionedCall/while/Func/StatefulPartitionedCall/model/bidirectional_1/forward_lstm_1/PartitionedCall/input/_68_switch/_262", "op": "Switch", "input": ["StatefulPartitionedCall/model/bidirectional_1/forward_lstm_1/PartitionedCall/while/merge/_250", "StatefulPartitionedCall/model/bidirectional_1/forward_lstm_1/PartitionedCall/while/LoopCond/_251"], "attr": {"T": {"type": "DT_FLOAT"}}}, {"name": "StatefulPartitionedCall/model/bidirectional_1/forward_lstm_1/PartitionedCall/while/StatefulPartitionedCall/model/bidirectional_1/forward_lstm_1/PartitionedCall/time_switch/_254", "op": "Switch", "input": ["StatefulPartitionedCall/model/bidirectional_1/forward_lstm_1/PartitionedCall/while/merge/_242", "StatefulPartitionedCall/model/bidirectional_1/forward_lstm_1/PartitionedCall/while/LoopCond/_251"], "attr": {"T": {"type": "DT_INT32"}}}, {"name": "StatefulPartitionedCall/model/bidirectional_1/forward_lstm_1/PartitionedCall/while/StatefulPartitionedCall/model/bidirectional_1/forward_lstm_1/PartitionedCall/while/loop_counter_switch/_252", "op": "Switch", "input": ["StatefulPartitionedCall/model/bidirectional_1/forward_lstm_1/PartitionedCall/while/merge/_240", "StatefulPartitionedCall/model/bidirectional_1/forward_lstm_1/PartitionedCall/while/LoopCond/_251"], "attr": {"T": {"type": "DT_INT32"}}}, {"name": "StatefulPartitionedCall/model/bidirectional_1/forward_lstm_1/PartitionedCall/while/StatefulPartitionedCall/model/bidirectional_1/forward_lstm_1/PartitionedCall/TensorArrayV2_1_switch/_255", "op": "Switch", "input": ["StatefulPartitionedCall/model/bidirectional_1/forward_lstm_1/PartitionedCall/while/merge/_243", "StatefulPartitionedCall/model/bidirectional_1/forward_lstm_1/PartitionedCall/while/LoopCond/_251"], "attr": {"T": {"type": "DT_VARIANT"}}}, {"name": "StatefulPartitionedCall/model/bidirectional_1/forward_lstm_1/PartitionedCall/while/StatefulPartitionedCall/model/bidirectional_1/forward_lstm_1/PartitionedCall/strided_slice_switch/_258", "op": "Switch", "input": ["StatefulPartitionedCall/model/bidirectional_1/forward_lstm_1/PartitionedCall/while/merge/_246", "StatefulPartitionedCall/model/bidirectional_1/forward_lstm_1/PartitionedCall/while/LoopCond/_251"], "attr": {"T": {"type": "DT_INT32"}}}, {"name": "StatefulPartitionedCall/model/bidirectional_1/backward_lstm_1/PartitionedCall/while/Func/StatefulPartitionedCall/model/bidirectional_1/backward_lstm_1/PartitionedCall/input/_76_switch/_317", "op": "Switch", "input": ["StatefulPartitionedCall/model/bidirectional_1/backward_lstm_1/PartitionedCall/while/merge/_305", "StatefulPartitionedCall/model/bidirectional_1/backward_lstm_1/PartitionedCall/while/LoopCond/_311"], "attr": {"T": {"type": "DT_FLOAT"}}}, {"name": "StatefulPartitionedCall/model/bidirectional_1/backward_lstm_1/PartitionedCall/while/StatefulPartitionedCall/model/bidirectional_1/backward_lstm_1/PartitionedCall/TensorArrayUnstack/TensorListFromTensor_switch/_319", "op": "Switch", "input": ["StatefulPartitionedCall/model/bidirectional_1/backward_lstm_1/PartitionedCall/while/merge/_307", "StatefulPartitionedCall/model/bidirectional_1/backward_lstm_1/PartitionedCall/while/LoopCond/_311"], "attr": {"T": {"type": "DT_VARIANT"}}}, {"name": "StatefulPartitionedCall/model/bidirectional_1/backward_lstm_1/PartitionedCall/while/Func/StatefulPartitionedCall/model/bidirectional_1/backward_lstm_1/PartitionedCall/input/_77_switch/_320", "op": "Switch", "input": ["StatefulPartitionedCall/model/bidirectional_1/backward_lstm_1/PartitionedCall/while/merge/_308", "StatefulPartitionedCall/model/bidirectional_1/backward_lstm_1/PartitionedCall/while/LoopCond/_311"], "attr": {"T": {"type": "DT_FLOAT"}}}, {"name": "StatefulPartitionedCall/model/bidirectional_1/backward_lstm_1/PartitionedCall/while/Func/StatefulPartitionedCall/model/bidirectional_1/backward_lstm_1/PartitionedCall/input/_75_switch/_316", "op": "Switch", "input": ["StatefulPartitionedCall/model/bidirectional_1/backward_lstm_1/PartitionedCall/while/merge/_304", "Sta…
lPartitionedCall/model/bidirectional_2/forward_lstm_2/PartitionedCall/TensorArrayV2Stack/TensorListStack", "op": "TensorListStack", "input": ["StatefulPartitionedCall/model/bidirectional_2/forward_lstm_2/PartitionedCall/while/exit/_387", "StatefulPartitionedCall/model/bidirectional_2/forward_lstm_2/PartitionedCall/TensorArrayV2Stack/TensorListStack/element_shape"], "attr": {"num_elements": {"i": "-1"}, "element_dtype": {"type": "DT_FLOAT"}}}, {"name": "StatefulPartitionedCall/model/bidirectional_2/backward_lstm_2/PartitionedCall/while/body/_408/while/split/split_dim", "op": "Const", "input": ["^StatefulPartitionedCall/model/bidirectional_2/backward_lstm_2/PartitionedCall/while/loop_body_control/_443"], "attr": {"value": {"tensor": {"dtype": "DT_INT32", "tensorShape": {}}}, "dtype": {"type": "DT_INT32"}}}, {"name": "StatefulPartitionedCall/model/bidirectional_2/backward_lstm_2/PartitionedCall/while/next_iteration/_463", "op": "NextIteration", "input": ["StatefulPartitionedCall/model/bidirectional_2/backward_lstm_2/PartitionedCall/while/StatefulPartitionedCall/model/bidirectional_2/backward_lstm_2/PartitionedCall/TensorArrayUnstack/TensorListFromTensor_switch/_439:1", "^StatefulPartitionedCall/model/bidirectional_2/backward_lstm_2/PartitionedCall/while/loop_body_control/_443"], "attr": {"T": {"type": "DT_VARIANT"}}}, {"name": "StatefulPartitionedCall/model/bidirectional_2/backward_lstm_2/PartitionedCall/while/body/_408/while/TensorArrayV2Read/TensorListGetItem/element_shape", "op": "Const", "input": ["^StatefulPartitionedCall/model/bidirectional_2/backward_lstm_2/PartitionedCall/while/loop_body_control/_443"], "attr": {"value": {"tensor": {"dtype": "DT_INT32", "tensorShape": {"dim": [{"size": "2"}]}}}, "dtype": {"type": "DT_INT32"}}}, {"name": "StatefulPartitionedCall/model/bidirectional_2/backward_lstm_2/PartitionedCall/while/next_iteration/_464", "op": "NextIteration", "input": ["StatefulPartitionedCall/model/bidirectional_2/backward_lstm_2/PartitionedCall/while/Func/StatefulPartitionedCall/model/bidirectional_2/backward_lstm_2/PartitionedCall/input/_99_switch/_440:1", "^StatefulPartitionedCall/model/bidirectional_2/backward_lstm_2/PartitionedCall/while/loop_body_control/_443"], "attr": {"T": {"type": "DT_FLOAT"}}}, {"name": "StatefulPartitionedCall/model/bidirectional_2/backward_lstm_2/PartitionedCall/while/next_iteration/_465", "op": "NextIteration", "input": ["StatefulPartitionedCall/model/bidirectional_2/backward_lstm_2/PartitionedCall/while/Func/StatefulPartitionedCall/model/bidirectional_2/backward_lstm_2/PartitionedCall/input/_100_switch/_441:1", "^StatefulPartitionedCall/model/bidirectional_2/backward_lstm_2/PartitionedCall/while/loop_body_control/_443"], "attr": {"T": {"type": "DT_FLOAT"}}}, {"name": "StatefulPartitionedCall/model/bidirectional_2/backward_lstm_2/PartitionedCall/while/body/_408/while/MatMul_1", "op": "MatMul", "input": ["StatefulPartitionedCall/model/bidirectional_2/backward_lstm_2/PartitionedCall/while/Func/StatefulPartitionedCall/model/bidirectional_2/backward_lstm_2/PartitionedCall/input/_97_switch/_436:1", "StatefulPartitionedCall/model/bidirectional_2/backward_lstm_2/PartitionedCall/while/Func/StatefulPartitionedCall/model/bidirectional_2/backward_lstm_2/PartitionedCall/input/_100_switch/_441:1", "^StatefulPartitionedCall/model/bidirectional_2/backward_lstm_2/PartitionedCall/while/loop_body_control/_443"], "device": "/device:CPU:0", "attr": {"transpose_b": {"b": false}, "T": {"type": "DT_FLOAT"}, "transpose_a": {"b": false}}}, {"name": "StatefulPartitionedCall/model/bidirectional_2/backward_lstm_2/PartitionedCall/while/next_iteration/_466", "op": "NextIteration", "input": ["StatefulPartitionedCall/model/bidirectional_2/backward_lstm_2/PartitionedCall/while/Func/StatefulPartitionedCall/model/bidirectional_2/backward_lstm_2/PartitionedCall/input/_101_switch/_442:1", "^StatefulPartitionedCall/model/bidirectional_2/backward_lstm_2/PartitionedCall/while/loop_body_control/_443"], "attr": {"T": {"type": "DT_FLOAT"}}}, {"name": "Func/StatefulPartitionedCall/model/bidirectional_2/backward_lstm_2/PartitionedCall/while/body/_408/input/_668", "op": "Identity", "input": ["StatefulPartitionedCall/model/bidirectional_2/backward_lstm_2/PartitionedCall/while/StatefulPartitionedCall/model/bidirectional_2/backward_lstm_2/PartitionedCall/time_switch/_434:1", "^StatefulPartitionedCall/model/bidirectional_2/backward_lstm_2/PartitionedCall/while/loop_body_control/_443"], "attr": {"T": {"type": "DT_INT32"}}}, {"name": "StatefulPartitionedCall/model/bidirectional_2/backward_lstm_2/PartitionedCall/while/body/_408/while/add_2/y", "op": "Const", "input": ["^StatefulPartitionedCall/model/bidirectional_2/backward_lstm_2/PartitionedCall/while/loop_body_control/_443"], "attr": {"value": {"tensor": {"dtype": "DT_INT32", "tensorShape": {}}}, "dtype": {"type": "DT_INT32"}}}, {"name": "StatefulPartitionedCall/model/bidirectional_2/backward_lstm_2/PartitionedCall/while/body/_408/while/add_3/y", "op": "Const", "input": ["^StatefulPartitionedCall/model/bidirectional_2/backward_lstm_2/PartitionedCall/while/loop_body_control/_443"], "attr": {"value": {"tensor": {"dtype": "DT_INT32", "tensorShape": {}}}, "dtype": {"type": "DT_INT32"}}}, {"name": "StatefulPartitionedCall/model/bidirectional_2/backward_lstm_2/PartitionedCall/while/next_iteration/_462", "op": "NextIteration", "input": ["StatefulPartitionedCall/model/bidirectional_2/backward_lstm_2/PartitionedCall/while/StatefulPartitionedCall/model/bidirectional_2/backward_lstm_2/PartitionedCall/strided_slice_switch/_438:1", "^StatefulPartitionedCall/model/bidirectional_2/backward_lstm_2/PartitionedCall/while/loop_body_control/_443"], "attr": {"T": {"type": "DT_INT32"}}}, {"name": "StatefulPartitionedCall/model/bidirectional_2/backward_lstm_2/PartitionedCall/TensorArrayV2Stack/TensorListStack", "op": "TensorListStack", "input": ["StatefulPartitionedCall/model/bidirectional_2/backward_lstm_2/PartitionedCall/while/exit/_447", "StatefulPartitionedCall/model/bidirectional_2/backward_lstm_2/PartitionedCall/TensorArrayV2Stack/TensorListStack/element_shape"], "attr": {"num_elements": {"i": "-1"}, "element_dtype": {"type": "DT_FLOAT"}}}, {"name": "StatefulPartitionedCall/model/bidirectional_2/forward_lstm_2/PartitionedCall/while/body/_348/while/TensorArrayV2Read/TensorListGetItem", "op": "TensorListGetItem", "input": ["StatefulPartitionedCall/model/bidirectional_2/forward_lstm_2/PartitionedCall/while/StatefulPartitionedCall/model/bidirectional_2/forward_lstm_2/PartitionedCall/TensorArrayUnstack/TensorListFromTensor_switch/_379:1", "Func/StatefulPartitionedCall/model/bidirectional_2/forward_lstm_2/PartitionedCall/while/body/_348/input/_631", "StatefulPartitionedCall/model/bidirectional_2/forward_lstm_2/PartitionedCall/while/body/_348/while/TensorArrayV2Read/TensorListGetItem/element_shape"], "attr": {"element_dtype": {"type": "DT_FLOAT"}}}, {"name": "StatefulPartitionedCall/model/bidirectional_2/forward_lstm_2/PartitionedCall/while/body/_348/while/add_2", "op": "AddV2", "input": ["Func/StatefulPartitionedCall/model/bidirectional_2/forward_lstm_2/PartitionedCall/while/body/_348/input/_631", "StatefulPartitionedCall/model/bidirectional_2/forward_lstm_2/PartitionedCall/while/body/_348/while/add_2/y"], "attr": {"T": {"type": "DT_INT32"}}}, {"name": "StatefulPartitionedCall/model/bidirectional_2/forward_lstm_2/PartitionedCall/while/body/_348/while/add_3", "op": "AddV2", "input": ["StatefulPartitionedCall/model/bidirectional_2/forward_lstm_2/PartitionedCall/while/StatefulPartitionedCall/model/bidirectional_2/forward_lstm_2/PartitionedCall/while/loop_counter_switch/_372:1", "StatefulPartitionedCall/model/bidirectional_2/forward_lstm_2/PartitionedCall/while/body/_348/while/add_3/y"], "attr": {"T": {"type": "DT_INT32"}}}, {"name": "StatefulPartitionedCall/model/bidirectional_2/forward_lstm_2/PartitionedCall/strided_slice_2", "op": "StridedSlice", "input": ["StatefulPartitionedCall/model/bidirectional_2/forward_lstm_2/PartitionedCall/TensorArrayV2Stack/TensorListStack", "StatefulPartitionedCall/model/bidirectional_2/forward_lstm_2/PartitionedCall/strided_slice_2/stack", "StatefulPartitionedCall/model/bidirectional_2/forward_lstm_2/PartitionedCall/strided_slice_2/stack_1", "StatefulPartitionedCall/model/bidirectional_2/forward_lstm_2/PartitionedCall/strided_slice_2/stack_2"], "attr": {"T": {"type": "DT_FLOAT"}, "Index": {"type": "DT_INT32"}, "shrink_axis_mask": {"i": "1"}, "ellipsis_mask": {"i": "0"}, "begin_mask": {"i": "0"}, "new_axis_mask": {"i": "0"}, "end_mask": {"i": "0"}}}, {"name": "StatefulPartitionedCall/model/bidirectional_2/backward_lstm_2/PartitionedCall/while/body/_408/while/TensorArrayV2Read/TensorListGetItem", "op": "TensorListGetItem", "input": ["StatefulPartitionedCall/model/bidirectional_2/backward_lstm_2/PartitionedCall/while/StatefulPartitionedCall/model/bidirectional_2/backward_lstm_2/PartitionedCall/TensorArrayUnstack/TensorListFromTensor_switch/_439:1", "Func/StatefulPartitionedCall/model/bidirectional_2/backward_lstm_2/PartitionedCall/while/body/_408/input/_668", "StatefulPartitionedCall/model/bidirectional_2/backward_lstm_2/PartitionedCall/while/body/_408/while/TensorArrayV2Read/TensorListGetItem/element_shape"], "attr": {"element_dtype": {"type": "DT_FLOAT"}}}, {"name": "StatefulPartitionedCall/model/bidirectional_2/backward_lstm_2/PartitionedCall/while/body/_408/while/add_2", "op": "AddV2", "input": ["Func/StatefulPartitionedCall/model/bidirectional_2/backward_lstm_2/PartitionedCall/while/body/_408/input/_668", "StatefulPartitionedCall/model/bidirectional_2/backward_lstm_2/PartitionedCall/while/body/_408/while/add_2/y"], "attr": {"T": {"type": "DT_INT32"}}}, {"name": "StatefulPartitionedCall/model/bidirectional_2/backward_lstm_2/PartitionedCall/while/body/_408/while/add_3", "op": "AddV2", "input": ["StatefulPartitionedCall/model/bidirectional_2/backward_lstm_2/PartitionedCall/while/StatefulPartitionedCall/model/bidirectional_2/backward_lstm_2/PartitionedCall/while/loop_counter_switch/_432:1", "StatefulPartitionedCall/model/bidirectional_2/backward_lstm_2/PartitionedCall/while/body/_408/while/add_3/y"], "attr": {"T": {"type": "DT_INT32"}}}, {"name": "StatefulPartitionedCall/model/bidirectional_2/backward_lstm_2/PartitionedCall/strided_slice_2", "op": "StridedSlice", "input": ["StatefulPartitionedCall/model/bidirectional_2/backward_lstm_2/PartitionedCall/TensorArrayV2Stack/TensorListStack", "StatefulPartitionedCall/model/bidirectional_2/backward_lstm_2/PartitionedCall/strided_slice_2/stack", "StatefulPartitionedCall/model/bidirectional_2/backward_lstm_2/PartitionedCall/strided_slice_2/stack_1", "StatefulPartitionedCall/model/bidirectional_2/backward_lstm_2/PartitionedCall/strided_slice_2/stack_2"], "attr": {"T": {"type": "DT_FLOAT"}, "Index": {"type": "DT_INT32"}, "shrink_axis_mask": {"i": "1"}, "ellipsis_mask": {"i": "0"}, "begin_mask": {"i": "0"}, "new_axis_mask": {"i": "0"}, "end_mask": {"i": "0"}}}, {"name": "StatefulPartitionedCall/model/bidirectional_2/forward_lstm_2/PartitionedCall/while/body/_348/while/MatMul", "op": "MatMul", "input": ["StatefulPartitionedCall/model/bidirectional_2/forward_lstm_2/PartitionedCall/while/body/_348/while/TensorArrayV2Read/TensorListGetItem", "StatefulPartitionedCall/model/bidirectional_2/forward_lstm_2/PartitionedCall/while/Func/StatefulPartitionedCall/model/bidirectional_2/forward_lstm_2/PartitionedCall/input/_88_switch/_380:1"], "device": "/device:CPU:0", "attr": {"transpose_b": {"b": false}, "T": {"type": "DT_FLOAT"}, "transpose_a": {"b": false}}}, {"name": "StatefulPartitionedCall/model/bidirectional_2/forward_lstm_2/PartitionedCall/while/next_iteration/_398", "op": "NextIteration", "input": ["StatefulPartitionedCall/model/bidirectional_2/forward_lstm_2/PartitionedCall/while/body/_348/while/add_2", "^StatefulPartitionedCall/model/bidirectional_2/forward_lstm_2/PartitionedCall/while/loop_body_control/_383"], "attr": {"T": {"type": "DT_INT32"}}}, {"name": "StatefulPartitionedCall/model/bidirectional_2/forward_lstm_2/PartitionedCall/while/next_iteration/_396", "op": "NextIteration", "input": ["StatefulPartitionedCall/model/bidirectional_2/forward_lstm_2/PartitionedCall/while/body/_348/while/add_3", "^StatefulPartitionedCall/model/bidirectional_2/forward_lstm_2/PartitionedCall/while/loop_body_control/_383"], "attr": {"T": {"type": "DT_INT32"}}}, {"name": "StatefulPartitionedCall/model/bidirectional_2/backward_lstm_2/PartitionedCall/while/body/_408/while/MatMul", "op": "MatMul", "input": ["StatefulPartitionedCall/model/bidirectional_2/backward_lstm_2/PartitionedCall/while/body/_408/while/TensorArrayV2Read/TensorListGetItem", "StatefulPartitionedCall/model/bidirectional_2/backward_lstm_2/PartitionedCall/while/Func/StatefulPartitionedCall/model/bidirectional_2/backward_lstm_2/PartitionedCall/input/_99_switch/_440:1"], "device": "/device:CPU:0", "attr": {"transpose_b": {"b": false}, "T": {"type": "DT_FLOAT"}, "transpose_a": {"b": false}}}, {"name": "StatefulPartitionedCall/model/bidirectional_2/backward_lstm_2/PartitionedCall/while/next_iteration/_458", "op": "NextIteration", "input": ["StatefulPartitionedCall/model/bidirectional_2/backward_lstm_2/PartitionedCall/while/body/_408/while/add_2", "^StatefulPartitionedCall/model/bidirectional_2/backward_lstm_2/PartitionedCall/while/loop_body_control/_443"], "attr": {"T": {"type": "DT_INT32"}}}, {"name": "StatefulPartitionedCall/model/bidirectional_2/backward_lstm_2/PartitionedCall/while/next_iteration/_456", "op": "NextIteration", "input": ["StatefulPartitionedCall/model/bidirectional_2/backward_lstm_2/PartitionedCall/while/body/_408/while/add_3", "^StatefulPartitionedCall/model/bidirectional_2/backward_lstm_2/PartitionedCall/while/loop_body_control/_443"], "attr": {"T": {"type": "DT_INT32"}}}, {"name": "StatefulPartitionedCall/model/bidirectional_2/concat", "op": "ConcatV2", "input": ["StatefulPartitionedCall/model/bidirectional_2/forward_lstm_2/PartitionedCall/strided_slice_2", "StatefulPartitionedCall/model/bidirectional_2/backward_lstm_2/PartitionedCall/strided_slice_2", "StatefulPartitionedCall/model/bidirectional_2/concat/axis"], "attr": {"Tidx": {"type": "DT_INT32"}, "T": {"type": "DT_FLOAT"}, "N": {"i": "2"}}}, {"name": "StatefulPartitionedCall/model/bidirectional_2/forward_lstm_2/PartitionedCall/while/body/_348/while/add", "op": "AddV2", "input": ["StatefulPartitionedCall/model/bidirectional_2/forward_lstm_2/PartitionedCall/while/body/_348/while/MatMul", "StatefulPartitionedCall/model/bidirectional_2/forward_lstm_2/PartitionedCall/while/body/_348/while/MatMul_1"], "attr": {"T": {"type": "DT_FLOAT"}}}, {"name": "StatefulPartitionedCall/model/bidirectional_2/backward_lstm_2/PartitionedCall/while/body/_408/while/add", "op": "AddV2", "input": ["StatefulPartitionedCall/model/bidirectional_2/backward_lstm_2/PartitionedCall/while/body/_408/while/MatMul", "StatefulPartitionedCall/model/bidirectional_2/backward_lstm_2/PartitionedCall/while/body/_408/while/MatMul_1"], "attr": {"T": {"type": "DT_FLOAT"}}}, {"name": "StatefulPartitionedCall/model/dense/BiasAdd", "op": "_FusedMatMul", "input": ["StatefulPartitionedCall/model/bidirectional_2/concat", "unknown_35", "unknown_36"], "device": "/device:CPU:0", "attr": {"transpose_b": {"b": false}, "T": {"type": "DT_FLOAT"}, "num_args": {"i": "1"}, "epsilon": {"f": 0.0}, "fused_ops": {"list": {"s": ["Qmlhc0FkZA=="]}}, "transpose_a": {"b": false}}}, {"name": "StatefulPartitionedCall/model/bidirectional_2/forward_lstm_2/PartitionedCall/while/body/_348/while/BiasAdd", "op": "BiasAdd", "input": ["StatefulPartitionedCall/model/bidirectional_2/forward_lstm_2/PartitionedCall/while/body/_348/while/add", "StatefulPartitionedCall/model/bidirectional_2/forward_lstm_2/PartitionedCall/while/Func/StatefulPartitionedCall/model/bidirectional_2/forward_lstm_2/PartitionedCall/input/_90_switch/_382:1"], "attr": {"T": {"type": "DT_FLOAT"}, "data_format": {"s": "TkhXQw=="}}}, {"name": "StatefulPartitionedCall/model/bidirectional_2/backward_lstm_2/PartitionedCall/while/body/_408/while/BiasAdd", "op": "BiasAdd", "input": ["StatefulPartitionedCall/model/bidirectional_2/backward_lstm_2/PartitionedCall/while/body/_408/while/add", "StatefulPartitionedCall/model/bidirectional_2/backward_lstm_2/PartitionedCall/while/Func/StatefulPartitionedCall/model/bidirectional_2/backward_lstm_2/PartitionedCall/input/_101_switch/_442:1"], "attr": {"T": {"type": "DT_FLOAT"}, "data_format": {"s": "TkhXQw=="}}}, {"name": "StatefulPartitionedCall/model/dense/Softmax", "op": "Softmax", "input": ["StatefulPartitionedCall/model/dense/BiasAdd"], "attr": {"T": {"type": "DT_FLOAT"}}}, {"name": "StatefulPartitionedCall/model/bidirectional_2/forward_lstm_2/PartitionedCall/while/body/_348/while/split", "op": "Split", "input": ["StatefulPartitionedCall/model/bidirectional_2/forward_lstm_2/PartitionedCall/while/body/_348/while/split/split_dim", "StatefulPartitionedCall/model/bidirectional_2/forward_lstm_2/PartitionedCall/while/body/_348/while/BiasAdd"], "attr": {"T": {"type": "DT_FLOAT"}, "num_split": {"i": "4"}}}, {"name": "StatefulPartitionedCall/model/bidirectional_2/backward_lstm_2/PartitionedCall/while/body/_408/while/split", "op": "Split", "input": ["StatefulPartitionedCall/model/bidirectional_2/backward_lstm_2/PartitionedCall/while/body/_408/while/split/split_dim", "StatefulPartitionedCall/model/bidirectional_2/backward_lstm_2/PartitionedCall/while/body/_408/while/BiasAdd"], "attr": {"T": {"type": "DT_FLOAT"}, "num_split": {"i": "4"}}}, {"name": "Identity", "op": "Identity", "input": ["StatefulPartitionedCall/model/dense/Softmax"], "attr": {"T": {"type": "DT_FLOAT"}}}, {"name": "StatefulPartitionedCall/model/bidirectional_2/forward_lstm_2/PartitionedCall/while/body/_348/while/Sigmoid", "op": "Sigmoid", "input": ["StatefulPartitionedCall/model/bidirectional_2/forward_lstm_2/PartitionedCall/while/body/_348/while/split"], "attr": {"T": {"type": "DT_FLOAT"}}}, {"name": "StatefulPartitionedCall/model/bidirectional_2/forward_lstm_2/PartitionedCall/while/body/_348/while/Sigmoid_1", "op": "Sigmoid", "input": ["StatefulPartitionedCall/model/bidirectional_2/forward_lstm_2/PartitionedCall/while/body/_348/while/split:1"], "attr": {"T": {"type": "DT_FLOAT"}}}, {"name": "StatefulPartitionedCall/model/bidirectional_2/forward_lstm_2/PartitionedCall/while/body/_348/while/Tanh", "op": "Tanh", "input": ["StatefulPartitionedCall/model/bidirectional_2/forward_lstm_2/PartitionedCall/while/body/_348/while/split:2"], "attr": {"T": {"type": "DT_FLOAT"}}}, {"name": "StatefulPartitionedCall/model/bidirectional_2/forward_lstm_2/PartitionedCall/while/body/_348/while/Sigmoid_2", "op": "Sigmoid", "input": ["StatefulPartitionedCall/model/bidirectional_2/forward_lstm_2/PartitionedCall/while/body/_348/while/split:3"], "attr": {"T": {"type": "DT_FLOAT"}}}, {"name": "StatefulPartitionedCall/model/bidirectional_2/backward_lstm_2/PartitionedCall/while/body/_408/while/Sigmoid", "op": "Sigmoid", "input": ["StatefulPartitionedCall/model/bidirectional_2/backward_lstm_2/PartitionedCall/while/body/_408/while/split"], "attr": {"T": {"type": "DT_FLOAT"}}}, {"name": "StatefulPartitionedCall/model/bidirectional_2/backward_lstm_2/PartitionedCall/while/body/_408/while/Sigmoid_1", "op": "Sigmoid", "input": ["StatefulPartitionedCall/model/bidirectional_2/backward_lstm_2/PartitionedCall/while/body/_408/while/split:1"], "attr": {"T": {"type": "DT_FLOAT"}}}, {"name": "StatefulPartitionedCall/model/bidirectional_2/backward_lstm_2/PartitionedCall/while/body/_408/while/Tanh", "op": "Tanh", "input": ["StatefulPartitionedCall/model/bidirectional_2/backward_lstm_2/PartitionedCall/while/body/_408/while/split:2"], "attr": {"T": {"type": "DT_FLOAT"}}}, {"name": "StatefulPartitionedCall/model/bidirectional_2/backward_lstm_2/PartitionedCall/while/body/_408/while/Sigmoid_2", "op": "Sigmoid", "input": ["StatefulPartitionedCall/model/bidirectional_2/backward_lstm_2/PartitionedCall/while/body/_408/while/split:3"], "attr": {"T": {"type": "DT_FLOAT"}}}, {"name": "StatefulPartitionedCall/model/bidirectional_2/forward_lstm_2/PartitionedCall/while/body/_348/while/mul", "op": "Mul", "input": ["StatefulPartitionedCall/model/bidirectional_2/forward_lstm_2/PartitionedCall/while/body/_348/while/Sigmoid_1", "StatefulPartitionedCall/model/bidirectional_2/forward_lstm_2/PartitionedCall/while/Func/StatefulPartitionedCall/model/bidirectional_2/forward_lstm_2/PartitionedCall/input/_87_switch/_377:1"], "attr": {"T": {"type": "DT_FLOAT"}}}, {"name": "StatefulPartitionedCall/model/bidirectional_2/forward_lstm_2/PartitionedCall/while/body/_348/while/mul_1", "op": "Mul", "input": ["StatefulPartitionedCall/model/bidirectional_2/forward_lstm_2/PartitionedCall/while/body/_348/while/Sigmoid", "StatefulPartitionedCall/model/bidirectional_2/forward_lstm_2/PartitionedCall/while/body/_348/while/Tanh"], "attr": {"T": {"type": "DT_FLOAT"}}}, {"name": "StatefulPartitionedCall/model/bidirectional_2/backward_lstm_2/PartitionedCall/while/body/_408/while/mul", "op": "Mul", "input": ["StatefulPartitionedCall/model/bidirectional_2/backward_lstm_2/PartitionedCall/while/body/_408/while/Sigmoid_1", "StatefulPartitionedCall/model/bidirectional_2/backward_lstm_2/PartitionedCall/while/Func/StatefulPartitionedCall/model/bidirectional_2/backward_lstm_2/PartitionedCall/input/_98_switch/_437:1"], "attr": {"T": {"type": "DT_FLOAT"}}}, {"name": "StatefulPartitionedCall/model/bidirectional_2/backward_lstm_2/PartitionedCall/while/body/_408/while/mul_1", "op": "Mul", "input": ["StatefulPartitionedCall/model/bidirectional_2/backward_lstm_2/PartitionedCall/while/body/_408/while/Sigmoid", "StatefulPartitionedCall/model/bidirectional_2/backward_lstm_2/PartitionedCall/while/body/_408/while/Tanh"], "attr": {"T": {"type": "DT_FLOAT"}}}, {"name": "StatefulPartitionedCall/model/bidirectional_2/forward_lstm_2/PartitionedCall/while/body/_348/while/add_1", "op": "AddV2", "input": ["StatefulPartitionedCall/model/bidirectional_2/forward_lstm_2/PartitionedCall/while/body/_348/while/mul", "StatefulPartitionedCall/model/bidirectional_2/forward_lstm_2/PartitionedCall/while/body/_348/while/mul_1"], "attr": {"T": {"type": "DT_FLOAT"}}}, {"name": "StatefulPartitionedCall/model/bidirectional_2/backward_lstm_2/PartitionedCall/while/body/_408/while/add_1", "op": "AddV2", "input": ["StatefulPartitionedCall/model/bidirectional_2/backward_lstm_2/PartitionedCall/while/body/_408/while/mul", "StatefulPartitionedCall/model/bidirectional_2/backward_lstm_2/PartitionedCall/while/body/_408/while/mul_1"], "attr": {"T": {"type": "DT_FLOAT"}}}, {"name": "StatefulPartitionedCall/model/bidirectional_2/forward_lstm_2/PartitionedCall/while/body/_348/while/Tanh_1", "op": "Tanh", "input": ["StatefulPartitionedCall/model/bidirectional_2/forward_lstm_2/PartitionedCall/while/body/_348/while/add_1"], "attr": {"T": {"type": "DT_FLOAT"}}}, {"name": "StatefulPartitionedCall/model/bidirectional_2/forward_lstm_2/PartitionedCall/while/next_iteration/_401", "op": "NextIteration", "input": ["StatefulPartitionedCall/model/bidirectional_2/forward_lstm_2/PartitionedCall/while/body/_348/while/add_1", "^StatefulPartitionedCall/model/bidirectional_2/forward_lstm_2/PartitionedCall/while/loop_body_control/_383"], "attr": {"T": {"type": "DT_FLOAT"}}}, {"name": "StatefulPartitionedCall/model/bidirectional_2/backward_lstm_2/PartitionedCall/while/body/_408/while/Tanh_1", "op": "Tanh", "input": ["StatefulPartitionedCall/model/bidirectional_2/backward_lstm_2/PartitionedCall/while/body/_408/while/add_1"], "attr": {"T": {"type": "DT_FLOAT"}}}, {"name": "StatefulPartitionedCall/model/bidirectional_2/backward_lstm_2/PartitionedCall/while/next_iteration/_461", "op": "NextIteration", "input": ["StatefulPartitionedCall/model/bidirectional_2/backward_lstm_2/PartitionedCall/while/body/_408/while/add_1", "^StatefulPartitionedCall/model/bidirectional_2/backward_lstm_2/PartitionedCall/while/loop_body_control/_443"], "attr": {"T": {"type": "DT_FLOAT"}}}, {"name": "StatefulPartitionedCall/model/bidirectional_2/forward_lstm_2/PartitionedCall/while/body/_348/while/mul_2", "op": "Mul", "input": ["StatefulPartitionedCall/model/bidirectional_2/forward_lstm_2/PartitionedCall/while/body/_348/while/Sigmoid_2", "StatefulPartitionedCall/model/bidirectional_2/forward_lstm_2/PartitionedCall/while/body/_348/while/Tanh_1"], "attr": {"T": {"type": "DT_FLOAT"}}}, {"name": "StatefulPartitionedCall/model/bidirectional_2/backward_lstm_2/PartitionedCall/while/body/_408/while/mul_2", "op": "Mul", "input": ["StatefulPartitionedCall/model/bidirectional_2/backward_lstm_2/PartitionedCall/while/body/_408/while/Sigmoid_2", "StatefulPartitionedCall/model/bidirectional_2/backward_lstm_2/PartitionedCall/while/body/_408/while/Tanh_1"], "attr": {"T": {"type": "DT_FLOAT"}}}, {"name": "StatefulPartitionedCall/model/bidirectional_2/forward_lstm_2/PartitionedCall/while/next_iteration/_400", "op": "NextIteration", "input": ["StatefulPartitionedCall/model/bidirectional_2/forward_lstm_2/PartitionedCall/while/body/_348/while/mul_2", "^StatefulPartitionedCall/model/bidirectional_2/forward_lstm_2/PartitionedCall/while/loop_body_control/_383"], "attr": {"T": {"type": "DT_FLOAT"}}}, {"name": "StatefulPartitionedCall/model/bidirectional_2/forward_lstm_2/PartitionedCall/while/body/_348/while/TensorArrayV2Write/TensorListSetItem", "op": "TensorListSetItem", "input": ["StatefulPartitionedCall/model/bidirectional_2/forward_lstm_2/PartitionedCall/while/StatefulPartitionedCall/model/bidirectional_2/forward_lstm_2/PartitionedCall/TensorArrayV2_1_switch/_375:1", "Func/StatefulPartitionedCall/model/bidirectional_2/forward_lstm_2/PartitionedCall/while/body/_348/input/_631", "StatefulPartitionedCall/model/bidirectional_2/forward_lstm_2/PartitionedCall/while/body/_348/while/mul_2"], "attr": {"element_dtype": {"type": "DT_FLOAT"}}}, {"name": "StatefulPartitionedCall/model/bidirectional_2/backward_lstm_2/PartitionedCall/while/next_iteration/_460", "op": "NextIteration", "input": ["StatefulPartitionedCall/model/bidirectional_2/backward_lstm_2/PartitionedCall/while/body/_408/while/mul_2", "^StatefulPartitionedCall/model/bidirectional_2/backward_lstm_2/PartitionedCall/while/loop_body_control/_443"], "attr": {"T": {"type": "DT_FLOAT"}}}, {"name": "StatefulPartitionedCall/model/bidirectional_2/backward_lstm_2/PartitionedCall/while/body/_408/while/TensorArrayV2Write/TensorListSetItem", "op": "TensorListSetItem", "input": ["StatefulPartitionedCall/model/bidirectional_2/backward_lstm_2/PartitionedCall/while/StatefulPartitionedCall/model/bidirectional_2/backward_lstm_2/PartitionedCall/TensorArrayV2_1_switch/_435:1", "Func/StatefulPartitionedCall/model/bidirectional_2/backward_lstm_2/PartitionedCall/while/body/_408/input/_668", "StatefulPartitionedCall/model/bidirectional_2/backward_lstm_2/PartitionedCall/while/body/_408/while/mul_2"], "attr": {"element_dtype": {"type": "DT_FLOAT"}}}, {"name": "StatefulPartitionedCall/model/bidirectional_2/forward_lstm_2/PartitionedCall/while/next_iteration/_399", "op": "NextIteration", "input": ["StatefulPartitionedCall/model/bidirectional_2/forward_lstm_2/PartitionedCall/while/body/_348/while/TensorArrayV2Write/TensorListSetItem", "^StatefulPartitionedCall/model/bidirectional_2/forward_lstm_2/PartitionedCall/while/loop_body_control/_383"], "attr": {"T": {"type": "DT_VARIANT"}}}, {"name": "StatefulPartitionedCall/model/bidirectional_2/backward_lstm_2/PartitionedCall/while/next_iteration/_459", "op": "NextIteration", "input": ["StatefulPartitionedCall/model/bidirectional_2/backward_lstm_2/PartitionedCall/while/body/_408/while/TensorArrayV2Write/TensorListSetItem", "^StatefulPartitionedCall/model/bidirectional_2/backward_lstm_2/PartitionedCall/while/loop_body_control/_443"], "attr": {"T": {"type": "DT_VARIANT"}}}], "library": {}, "versions": {"producer": 560}}, "weightsManifest": [{"paths": ["group1-shard1of2.bin", "group1-shard2of2.bin"], "weights": [{"name": "StatefulPartitionedCall/model/bidirectional_2/forward_lstm_2/PartitionedCall/TensorArrayV2_1/element_shape", "shape": [2], "dtype": "int32"}, {"name": "StatefulPartitionedCall/model/bidirectional_2/forward_lstm_2/zeros_1/packed/1", "shape": [], "dtype": "int32"}, {"name": "StatefulPartitionedCall/model/bidirectional_2/forward_lstm_2/zeros_1/Const", "shape": [], "dtype": "float32"}, {"name": "StatefulPartitionedCall/model/bidirectional_2/forward_lstm_2/PartitionedCall/TensorArrayUnstack/TensorListFromTensor/element_shape", "shape": [2], "dtype": "int32"}, {"name": "unknown_29", "shape": [256, 512], "dtype": "float32"}, {"name": "StatefulPartitionedCall/model/bidirectional_2/forward_lstm_2/strided_slice/stack", "shape": [1], "dtype": "int32"}, {"name": "StatefulPartitionedCall/model/bidirectional_2/forward_lstm_2/strided_slice/stack_1", "shape": [1], "dtype": "int32"}, {"name": "StatefulPartitionedCall/model/bidirectional_2/forward_lstm_2/strided_slice/stack_2", "shape": [1], "dtype": "int32"}, {"name": "StatefulPartitionedCall/model/bidirectional_2/forward_lstm_2/zeros/packed/1", "shape": [], "dtype": "int32"}, {"name": "StatefulPartitionedCall/model/bidirectional_2/forward_lstm_2/zeros/Const", "shape": [], "dtype": "float32"}, {"name": "unknown_30", "shape": [128, 512], "dtype": "float32"}, {"name": "unknown_31", "shape": [512], "dtype": "float32"}, {"name": "StatefulPartitionedCall/model/bidirectional_2/forward_lstm_2/PartitionedCall/time", "shape": [], "dtype": "int32"}, {"name": "StatefulPartitionedCall/model/bidirectional_2/forward_lstm_2/PartitionedCall/transpose/perm", "shape": [3], "dtype": "int32"}, {"name": "StatefulPartitionedCall/model/bidirectional_2/forward_lstm_2/PartitionedCall/strided_slice/stack", "shape": [1], "dtype": "int32"}, {"name": "StatefulPartitionedCall/model/bidirectional_2/forward_lstm_2/PartitionedCall/strided_slice/stack_1", "shape": [1], "dtype": "int32"}, {"name": "StatefulPartitionedCall/model/bidirectional_2/forward_lstm_2/PartitionedCall/strided_slice/stack_2", "shape": [1], "dtype": "int32"}, {"name": "StatefulPartitionedCall/model/bidirectional_2/forward_lstm_2/PartitionedCall/while/loop_counter", "shape": [], "dtype": "int32"}, {"name": "StatefulPartitionedCall/model/bidirectional_2/forward_lstm_2/PartitionedCall/TensorArrayV2Stack/TensorListStack/element_shape", "shape": [2], "dtype": "int32"}, {"name": "StatefulPartitionedCall/model/bidirectional_2/forward_lstm_2/PartitionedCall/strided_slice_2/stack", "shape": [1], "dtype": "int32"}, {"name": "StatefulPartitionedCall/model/bidirectional_2/forward_lstm_2/PartitionedCall/strided_slice_2/stack_1", "shape": [1], "dtype": "int32"}, {"name": "StatefulPartitionedCall/model/bidirectional_2/forward_lstm_2/PartitionedCall/strided_slice_2/stack_2", "shape": [1], "dtype": "int32"}, {"name": "StatefulPartitionedCall/model/bidirectional_2/backward_lstm_2/PartitionedCall/TensorArrayV2_1/element_shape", "shape": [2], "dtype": "int32"}, {"name": "StatefulPartitionedCall/model/bidirectional_2/backward_lstm_2/zeros_1/packed/1", "shape": [], "dtype": "int32"}, {"name": "StatefulPartitionedCall/model/bidirectional_2/backward_lstm_2/zeros_1/Const", "shape": [], "dtype": "float32"}, {"name": "StatefulPartitionedCall/model/bidirectional_2/backward_lstm_2/PartitionedCall/ReverseV2/axis", "shape": [1], "dtype": "int32"}, {"name": "StatefulPartitionedCall/model/bidirectional_2/backward_lstm_2/PartitionedCall/TensorArrayUnstack/TensorListFromTensor/element_shape", "shape": [2], "dtype": "int32"}, {"name": "unknown_32", "shape": [256, 512], "dtype": "float32"}, {"name": "StatefulPartitionedCall/model/bidirectional_2/backward_lstm_2/strided_slice/stack", "shape": [1], "dtype": "int32"}, {"name": "StatefulPartitionedCall/model/bidirectional_2/backward_lstm_2/strided_slice/stack_1", "shape": [1], "dtype": "int32"}, {"name": "StatefulPartitionedCall/model/bidirectional_2/backward_lstm_2/strided_slice/stack_2", "shape": [1], "dtype": "int32"}, {"name": "StatefulPartitionedCall/model/bidirectional_2/backward_lstm_2/zeros/packed/1", "shape": [], "dtype": "int32"}, {"name": "StatefulPartitionedCall/model/bidirectional_2/backward_lstm_2/zeros/Const", "shape": [], "dtype": "float32"}, {"name": "unknown_33", "shape": [128, 512], "dtype": "float32"}, {"name": "unknown_34", "shape": [512], "dtype": "float32"}, {"name": "StatefulPartitionedCall/model/bidirectional_2/backward_lstm_2/PartitionedCall/time", "shape": [], "dtype": "int32"}, {"name": "StatefulPartitionedCall/model/bidirectional_1/forward_lstm_1/PartitionedCall/TensorArrayV2_1/element_shape", "shape": [2], "dtype": "int32"}, {"name": "StatefulPartitionedCall/model/bidirectional_1/forward_lstm_1/zeros_1/packed/1", "shape": [], "dtype": "int32"}, {"name": "StatefulPartitionedCall/model/bidirectional_1/forward_lstm_1/zeros_1/Const", "shape": [], "dtype": "float32"}, {"name": "StatefulPartitionedCall/model/bidirectional_1/forward_lstm_1/PartitionedCall/TensorArrayUnstack/TensorListFromTensor/element_shape", "shape": [2], "dtype": "int32"}, {"name": "unknown_23", "shape": [256, 512], "dtype": "float32"}, {"name": "StatefulPartitionedCall/model/bidirectional_1/forward_lstm_1/strided_slice/stack", "shape": [1], "dtype": "int32"}, {"name": "StatefulPartitionedCall/model/bidirectional_1/forward_lstm_1/strided_slice/stack_1", "shape": [1], "dtype": "int32"}, {"name": "StatefulPartitionedCall/model/bidirectional_1/forward_lstm_1/strided_slice/stack_2", "shape": [1], "dtype": "int32"}, {"name": "StatefulPartitionedCall/model/bidirectional_1/forward_lstm_1/zeros/packed/1", "shape": [], "dtype": "int32"}, {"name": "StatefulPartitionedCall/model/bidirectional_1/forward_lstm_1/zeros/Const", "shape": [], "dtype": "float32"}, {"name": "unknown_24", "shape": [128, 512], "dtype": "float32"}, {"name": "unknown_25", "shape": [512], "dtype": "float32"}, {"name": "StatefulPartitionedCall/model/bidirectional_1/forward_lstm_1/PartitionedCall/time", "shape": [], "dtype": "int32"}, {"name": "StatefulPartitionedCall/model/bidirectional_1/forward_lstm_1/PartitionedCall/transpose/perm", "shape": [3], "dtype": "int32"}, {"name": "StatefulPartitionedCall/model/bidirectional_1/forward_lstm_1/PartitionedCall/strided_slice/stack", "shape": [1], "dtype": "int32"}, {"name": "StatefulPartitionedCall/model/bidirectional_1/forward_lstm_1/PartitionedCall/strided_slice/stack_1", "shape": [1], "dtype": "int32"}, {"name": "StatefulPartitionedCall/model/bidirectional_1/forward_lstm_1/PartitionedCall/strided_slice/stack_2", "shape": [1], "dtype": "int32"}, {"name": "StatefulPartitionedCall/model/bidirectional_1/forward_lstm_1/PartitionedCall/while/loop_counter", "shape": [], "dtype": "int32"}, {"name": "StatefulPartitionedCall/model/bidirectional_1/forward_lstm_1/PartitionedCall/TensorArrayV2Stack/TensorListStack/element_shape", "shape": [2], "dtype": "int32"}, {"name": "StatefulPartitionedCall/model/bidirectional_1/forward_lstm_1/PartitionedCall/transpose_1/perm", "shape": [3], "dtype": "int32"}, {"name": "StatefulPartitionedCall/model/bidirectional_1/backward_lstm_1/PartitionedCall/TensorArrayV2_1/element_shape", "shape": [2], "dtype": "int32"}, {"name": "StatefulPartitionedCall/model/bidirectional_1/backward_lstm_1/zeros_1/packed/1", "shape": [], "dtype": "int32"}, {"name": "StatefulPartitionedCall/model/bidirectional_1/backward_lstm_1/zeros_1/Const", "shape": [], "dtype": "float32"}, {"name": "StatefulPartitionedCall/model/bidirectional_1/backward_lstm_1/PartitionedCall/ReverseV2/axis", "shape": [1], "dtype": "int32"}, {"name": "StatefulPartitionedCall/model/bidirectional_1/backward_lstm_1/PartitionedCall/TensorArrayUnstack/TensorListFromTensor/element_shape", "shape": [2], "dtype": "int32"}, {"name": "unknown_26", "shape": [256, 512], "dtype": "float32"}, {"name": "StatefulPartitionedCall/model/bidirectional_1/backward_lstm_1/strided_slice/stack", "shape": [1], "dtype": "int32"}, {"name": "StatefulPartitionedCall/model/bidirectional_1/backward_lstm_1/strided_slice/stack_1", "shape": [1], "dtype": "int32"}, {"name": "StatefulPartitionedCall/model/bidirectional_1/backward_lstm_1/strided_slice/stack_2", "shape": [1], "dtype": "int32"}, {"name": "StatefulPartitionedCall/model/bidirectional_1/backward_lstm_1/zeros/packed/1", "shape": [], "dtype": "int32"}, {"name": "StatefulPartitionedCall/model/bidirectional_1/backward_lstm_1/zeros/Const", "shape": [], "dtype": "float32"}, {"name": "unknown_27", "shape": [128, 512], "dtype": "float32"}, {"name": "unknown_28", "shape": [512], "dtype": "float32"}, {"name": "StatefulPartitionedCall/model/bidirectional_1/backward_lstm_1/PartitionedCall/time", "shape": [], "dtype": "int32"}, {"name": "StatefulPartitionedCall/model/bidirectional/forward_lstm/PartitionedCall/TensorArrayV2_1/element_shape", "shape": [2], "dtype": "int32"}, {"name": "StatefulPartitionedCall/model/bidirectional/forward_lstm/zeros_1/packed/1", "shape": [], "dtype": "int32"}, {"name": "StatefulPartitionedCall/model/bidirectional/forward_lstm/zeros_1/Const", "shape": [], "dtype": "float32"}, {"name": "StatefulPartitionedCall/model/bidirectional/forward_lstm/PartitionedCall/TensorArrayUnstack/TensorListFromTensor/element_shape", "shape": [2], "dtype": "int32"}, {"name": "unknown_17", "shape": [96, 512], "dtype": "float32"}, {"name": "StatefulPartitionedCall/model/bidirectional/forward_lstm/strided_slice/stack", "shape": [1], "dtype": "int32"}, {"name": "StatefulPartitionedCall/model/bidirectional/forward_lstm/strided_slice/stack_1", "shape": [1], "dtype": "int32"}, {"name": "StatefulPartitionedCall/model/bidirectional/forward_lstm/strided_slice/stack_2", "shape": [1], "dtype": "int32"}, {"name": "StatefulPartitionedCall/model/bidirectional/forward_lstm/zeros/packed/1", "shape": [], "dtype": "int32"}, {"name": "StatefulPartitionedCall/model/bidirectional/forward_lstm/zeros/Const", "shape": [], "dtype": "float32"}, {"name": "unknown_18", "shape": [128, 512], "dtype": "float32"}, {"name": "unknown_19", "shape": [512], "dtype": "float32"}, {"name": "StatefulPartitionedCall/model/bidirectional/forward_lstm/PartitionedCall/time", "shape": [], "dtype": "int32"}, {"name": "StatefulPartitionedCall/model/bidirectional/forward_lstm/PartitionedCall/transpose/perm", "shape": [3], "dtype": "int32"}, {"name": "StatefulPartitionedCall/model/bidirectional/forward_lstm/PartitionedCall/strided_slice/stack", "shape": [1], "dtype": "int32"}, {"name": "StatefulPartitionedCall/model/bidirectional/forward_lstm/PartitionedCall/strided_slice/stack_1", "shape": [1], "dtype": "int32"}, {"name": "StatefulPartitionedCall/model/bidirectional/forward_lstm/PartitionedCall/strided_slice/stack_2", "shape": [1], "dtype": "int32"}, {"name": "StatefulPartitionedCall/model/bidirectional/forward_lstm/PartitionedCall/while/loop_counter", "shape": [], "dtype": "int32"}, {"name": "StatefulPartitionedCall/model/bidirectional/forward_lstm/PartitionedCall/TensorArrayV2Stack/TensorListStack/element_shape", "shape": [2], "dtype": "int32"}, {"name": "StatefulPartitionedCall/model/bidirectional/forward_lstm/PartitionedCall/transpose_1/perm", "shape": [3], "dtype": "int32"}, {"name": "StatefulPartitionedCall/model/bidirectional/backward_lstm/PartitionedCall/TensorArrayV2_1/element_shape", "shape": [2], "dtype": "int32"}, {"name": "StatefulPartitionedCall/model/bidirectional/backward_lstm/zeros_1/packed/1", "shape": [], "dtype": "int32"}, {"name": "StatefulPartitionedCall/model/bidirectional/backward_lstm/zeros_1/Const", "shape": [], "dtype": "float32"}, {"name": "StatefulPartitionedCall/model/bidirectional/backward_lstm/PartitionedCall/ReverseV2/axis", "shape": [1], "dtype": "int32"}, {"name": "StatefulPartitionedCall/model/bidirectional/backward_lstm/PartitionedCall/TensorArrayUnstack/TensorListFromTensor/element_shape", "shape": [2], "dtype": "int32"}, {"name": "unknown_20", "shape": [96, 512], "dtype": "float32"}, {"name": "StatefulPartitionedCall/model/bidirectional/backward_lstm/strided_slice/stack", "shape": [1], "dtype": "int32"}, {"name": "StatefulPartitionedCall/model/bidirectional/backward_lstm/strided_slice/stack_1", "shape": [1], "dtype": "int32"}, {"name": "StatefulPartitionedCall/model/bidirectional/backward_lstm/strided_slice/stack_2", "shape": [1], "dtype": "int32"}, {"name": "StatefulPartitionedCall/model/bidirectional/backward_lstm/zeros/packed/1", "shape": [], "dtype": "int32"}, {"name": "StatefulPartitionedCall/model/bidirectional/backward_lstm/zeros/Const", "shape": [], "dtype": "float32"}, {"name": "unknown_21", "shape": [128, 512], "dtype": "float32"}, {"name": "unknown_22", "shape": [512], "dtype": "float32"}, {"name": "StatefulPartitionedCall/model/bidirectional/backward_lstm/PartitionedCall/time", "shape": [], "dtype": "int32"}, {"name": "StatefulPartitionedCall/model/batch_normalization_2/batchnorm/mul", "shape": [64], "dtype": "float32"}, {"name": "StatefulPartitionedCall/model/batch_normalization_1/batchnorm/mul", "shape": [48], "dtype": "float32"}, {"name": "StatefulPartitionedCall/model/batch_normalization/batchnorm/mul", "shape": [3], "dtype": "float32"}, {"name": "StatefulPartitionedCall/model/batch_normalization/batchnorm/sub", "shape": [3], "dtype": "float32"}, {"name": "StatefulPartitionedCall/model/conv1d/conv1d/ExpandDims/dim", "shape": [], "dtype": "int32"}, {"name": "StatefulPartitionedCall/model/conv1d/conv1d/ExpandDims_1", "shape": [1, 5, 3, 48], "dtype": "float32"}, {"name": "unknown_4", "shape": [48], "dtype": "float32"}, {"name": "StatefulPartitionedCall/model/batch_normalization_1/batchnorm/sub", "shape": [48], "dtype": "float32"}, {"name": "StatefulPartitionedCall/model/conv1d_1/conv1d/ExpandDims/dim", "shape": [], "dtype": "int32"}, {"name": "StatefulPartitionedCall/model/conv1d_1/conv1d/ExpandDims_1", "shape": [1, 5, 48, 64], "dtype": "float32"}, {"name": "unknown_10", "shape": [64], "dtype": "float32"}, {"name": "StatefulPartitionedCall/model/batch_normalization_2/batchnorm/sub", "shape": [64], "dtype": "float32"}, {"name": "StatefulPartitionedCall/model/conv1d_2/conv1d/ExpandDims/dim", "shape": [], "dtype": "int32"}, {"name": "StatefulPartitionedCall/model/conv1d_2/conv1d/ExpandDims_1", "shape": [1, 3, 64, 96], "dtype": "float32"}, {"name": "unknown_16", "shape": [96], "dtype": "float32"}, {"name": "StatefulPartitionedCall/model/bidirectional/backward_lstm/PartitionedCall/transpose/perm", "shape": [3], "dtype": "int32"}, {"name": "StatefulPartitionedCall/model/bidirectional/backward_lstm/PartitionedCall/strided_slice/stack", "shape": [1], "dtype": "int32"}, {"name": "StatefulPartitionedCall/model/bidirectional/backward_lstm/PartitionedCall/strided_slice/stack_1", "shape": [1], "dtype": "int32"}, {"name": "StatefulPartitionedCall/model/bidirectional/backward_lstm/PartitionedCall/strided_slice/stack_2", "shape": [1], "dtype": "int32"}, {"name": "StatefulPartitionedCall/model/bidirectional/backward_lstm/PartitionedCall/while/loop_counter", "shape": [], "dtype": "int32"}, {"name": "StatefulPartitionedCall/model/bidirectional/backward_lstm/PartitionedCall/TensorArrayV2Stack/TensorListStack/element_shape", "shape": [2], "dtype": "int32"}, {"name": "StatefulPartitionedCall/model/bidirectional/backward_lstm/PartitionedCall/transpose_1/perm", "shape": [3], "dtype": "int32"}, {"name": "StatefulPartitionedCall/model/bidirectional/ReverseV2/axis", "shape": [1], "dtype": "int32"}, {"name": "StatefulPartitionedCall/model/bidirectional/concat/axis", "shape": [], "dtype": "int32"}, {"name": "StatefulPartitionedCall/model/bidirectional_1/backward_lstm_1/PartitionedCall/transpose/perm", "shape": [3], "dtype": "int32"}, {"name": "StatefulPartitionedCall/model/bidirectional_1/backward_lstm_1/PartitionedCall/strided_slice/stack", "shape": [1], "dtype": "int32"}, {"name": "StatefulPartitionedCall/model/bidirectional_1/backward_lstm_1/PartitionedCall/strided_slice/stack_1", "shape": [1], "dtype": "int32"}, {"name": "StatefulPartitionedCall/model/bidirectional_1/backward_lstm_1/PartitionedCall/strided_slice/stack_2", "shape": [1], "dtype": "int32"}, {"name": "StatefulPartitionedCall/model/bidirectional_1/backward_lstm_1/PartitionedCall/while/loop_counter", "shape": [], "dtype": "int32"}, {"name": "StatefulPartitionedCall/model/bidirectional_1/backward_lstm_1/PartitionedCall/TensorArrayV2Stack/TensorListStack/element_shape", "shape": [2], "dtype": "int32"}, {"name": "StatefulPartitionedCall/model/bidirectional_1/backward_lstm_1/PartitionedCall/transpose_1/perm", "shape": [3], "dtype": "int32"}, {"name": "StatefulPartitionedCall/model/bidirectional_1/ReverseV2/axis", "shape": [1], "dtype": "int32"}, {"name": "StatefulPartitionedCall/model/bidirectional_1/concat/axis", "shape": [], "dtype": "int32"}, {"name": "StatefulPartitionedCall/model/bidirectional_2/backward_lstm_2/PartitionedCall/transpose/perm", "shape": [3], "dtype": "int32"}, {"name": "StatefulPartitionedCall/model/bidirectional_2/backward_lstm_2/PartitionedCall/strided_slice/stack", "shape": [1], "dtype": "int32"}, {"name": "StatefulPartitionedCall/model/bidirectional_2/backward_lstm_2/PartitionedCall/strided_slice/stack_1", "shape": [1], "dtype": "int32"}, {"name": "StatefulPartitionedCall/model/bidirectional_2/backward_lstm_2/PartitionedCall/strided_slice/stack_2", "shape": [1], "dtype": "int32"}, {"name": "StatefulPartitionedCall/model/bidirectional_2/backward_lstm_2/PartitionedCall/while/loop_counter", "shape": [], "dtype": "int32"}, {"name": "StatefulPartitionedCall/model/bidirectional_2/backward_lstm_2/PartitionedCall/TensorArrayV2Stack/TensorListStack/element_shape", "shape": [2], "dtype": "int32"}, {"name": "StatefulPartitionedCall/model/bidirectional_2/backward_lstm_2/PartitionedCall/strided_slice_2/stack", "shape": [1], "dtype": "int32"}, {"name": "StatefulPartitionedCall/model/bidirectional_2/backward_lstm_2/PartitionedCall/strided_slice_2/stack_1", "shape": [1], "dtype": "int32"}, {"name": "StatefulPartitionedCall/model/bidirectional_2/backward_lstm_2/PartitionedCall/strided_slice_2/stack_2", "shape": [1], "dtype": "int32"}, {"name": "StatefulPartitionedCall/model/bidirectional_2/concat/axis", "shape": [], "dtype": "int32"}, {"name": "unknown_35", "shape": [256, 345], "dtype": "float32"}, {"name": "unknown_36", "shape": [345], "dtype": "float32"}, {"name": "StatefulPartitionedCall/model/bidirectional/forward_lstm/PartitionedCall/while/body/_108/while/split/split_dim", "shape": [], "dtype": "int32"}, {"name": "StatefulPartitionedCall/model/bidirectional/forward_lstm/PartitionedCall/while/body/_108/while/TensorArrayV2Read/TensorListGetItem/element_shape", "shape": [2], "dtype": "int32"}, {"name": "StatefulPartitionedCall/model/bidirectional/forward_lstm/PartitionedCall/while/body/_108/while/add_2/y", "shape": [], "dtype": "int32"}, {"name": "StatefulPartitionedCall/model/bidirectional/forward_lstm/PartitionedCall/while/body/_108/while/add_3/y", "shape": [], "dtype": "int32"}, {"name": "StatefulPartitionedCall/model/bidirectional/backward_lstm/PartitionedCall/while/body/_168/while/split/split_dim", "shape": [], "dtype": "int32"}, {"name": "StatefulPartitionedCall/model/bidirectional/backward_lstm/PartitionedCall/while/body/_168/while/TensorArrayV2Read/TensorListGetItem/element_shape", "shape": [2], "dtype": "int32"}, {"name": "StatefulPartitionedCall/model/bidirectional/backward_lstm/PartitionedCall/while/body/_168/while/add_2/y", "shape": [], "dtype": "int32"}, {"name": "StatefulPartitionedCall/model/bidirectional/backward_lstm/PartitionedCall/while/body/_168/while/add_3/y", "shape": [], "dtype": "int32"}, {"name": "StatefulPartitionedCall/model/bidirectional_1/forward_lstm_1/PartitionedCall/while/body/_228/while/split/split_dim", "shape": [], "dtype": "int32"}, {"name": "StatefulPartitionedCall/model/bidirectional_1/forward_lstm_1/PartitionedCall/while/body/_228/while/TensorArrayV2Read/TensorListGetItem/element_shape", "shape": [2], "dtype": "int32"}, {"name": "StatefulPartitionedCall/model/bidirectional_1/forward_lstm_1/PartitionedCall/while/body/_228/while/add_2/y", "shape": [], "dtype": "int32"}, {"name": "StatefulPartitionedCall/model/bidirectional_1/forward_lstm_1/PartitionedCall/while/body/_228/while/add_3/y", "shape": [], "dtype": "int32"}, {"name": "StatefulPartitionedCall/model/bidirectional_1/backward_lstm_1/PartitionedCall/while/body/_288/while/split/split_dim", "shape": [], "dtype": "int32"}, {"name": "StatefulPartitionedCall/model/bidirectional_1/backward_lstm_1/PartitionedCall/while/body/_288/while/TensorArrayV2Read/TensorListGetItem/element_shape", "shape": [2], "dtype": "int32"}, {"name": "StatefulPartitionedCall/model/bidirectional_1/backward_lstm_1/PartitionedCall/while/body/_288/while/add_2/y", "shape": [], "dtype": "int32"}, {"name": "StatefulPartitionedCall/model/bidirectional_1/backward_lstm_1/PartitionedCall/while/body/_288/while/add_3/y", "shape": [], "dtype": "int32"}, {"name": "StatefulPartitionedCall/model/bidirectional_2/forward_lstm_2/PartitionedCall/while/body/_348/while/split/split_dim", "shape": [], "dtype": "int32"}, {"name": "StatefulPartitionedCall/model/bidirectional_2/forward_lstm_2/PartitionedCall/while/body/_348/while/TensorArrayV2Read/TensorListGetItem/element_shape", "shape": [2], "dtype": "int32"}, {"name": "StatefulPartitionedCall/model/bidirectional_2/forward_lstm_2/PartitionedCall/while/body/_348/while/add_2/y", "shape": [], "dtype": "int32"}, {"name": "StatefulPartitionedCall/model/bidirectional_2/forward_lstm_2/PartitionedCall/while/body/_348/while/add_3/y", "shape": [], "dtype": "int32"}, {"name": "StatefulPartitionedCall/model/bidirectional_2/backward_lstm_2/PartitionedCall/while/body/_408/while/split/split_dim", "shape": [], "dtype": "int32"}, {"name": "StatefulPartitionedCall/model/bidirectional_2/backward_lstm_2/PartitionedCall/while/body/_408/while/TensorArrayV2Read/TensorListGetItem/element_shape", "shape": [2], "dtype": "int32"}, {"name": "StatefulPartitionedCall/model/bidirectional_2/backward_lstm_2/PartitionedCall/while/body/_408/while/add_2/y", "shape": [], "dtype": "int32"}, {"name": "StatefulPartitionedCall/model/bidirectional_2/backward_lstm_2/PartitionedCall/while/body/_408/while/add_3/y", "shape": [], "dtype": "int32"}]}]}